Creating model:mobilenetv2_140_block_ds/mobilenetv2_140_block_ds
Successfully load pretrained model: /home/mengli/projects/wenxuanzeng/RePriv/mobilenetv2_140_ra-21a4e913.pth
EfficientNet(
  (conv_stem): Conv2d(3, 48, kernel_size=(3, 3), stride=(2, 2), padding=(1, 1), bias=False)
  (bn1): BatchNorm2d(48, eps=1e-05, momentum=0.1, affine=True, track_running_stats=True)
  (act1): Changable_Act(
    (act_fun): Learnable_Relu6_Hard()
  )
  (blocks): Sequential(
    (0): Sequential(
      (0): DepthwiseSeparableConv(
        (conv_dw): Conv2d(48, 48, kernel_size=(3, 3), stride=(1, 1), padding=(1, 1), groups=48, bias=False)
        (bn1): BatchNorm2d(48, eps=1e-05, momentum=0.1, affine=True, track_running_stats=True)
        (act1): Changable_Act(
          (act_fun): Learnable_Relu6_Hard()
        )
        (se): Identity()
        (conv_pw): Conv2d(48, 24, kernel_size=(1, 1), stride=(1, 1), bias=False)
        (bn2): BatchNorm2d(24, eps=1e-05, momentum=0.1, affine=True, track_running_stats=True)
        (act2): Identity()
      )
    )
    (1): Sequential(
      (0): InvertedResidual_Share_Act(
        (conv_pw): Conv2d(24, 144, kernel_size=(1, 1), stride=(1, 1), bias=False)
        (bn1): BatchNorm2d(144, eps=1e-05, momentum=0.1, affine=True, track_running_stats=True)
        (act): Changable_Act(
          (act_fun): Learnable_Relu6_Hard()
        )
        (conv_dw): Conv2d(144, 144, kernel_size=(3, 3), stride=(2, 2), padding=(1, 1), groups=144, bias=False)
        (bn2): BatchNorm2d(144, eps=1e-05, momentum=0.1, affine=True, track_running_stats=True)
        (se): Identity()
        (conv_pwl): Conv2d(144, 32, kernel_size=(1, 1), stride=(1, 1), bias=False)
        (bn3): BatchNorm2d(32, eps=1e-05, momentum=0.1, affine=True, track_running_stats=True)
        (final_act): Identity()
      )
      (1): InvertedResidual_Share_Act(
        (conv_pw): Conv2d(32, 192, kernel_size=(1, 1), stride=(1, 1), bias=False)
        (bn1): BatchNorm2d(192, eps=1e-05, momentum=0.1, affine=True, track_running_stats=True)
        (act): Changable_Act(
          (act_fun): Learnable_Relu6_Hard()
        )
        (conv_dw): Conv2d(192, 192, kernel_size=(3, 3), stride=(1, 1), padding=(1, 1), groups=192, bias=False)
        (bn2): BatchNorm2d(192, eps=1e-05, momentum=0.1, affine=True, track_running_stats=True)
        (se): Identity()
        (conv_pwl): Conv2d(192, 32, kernel_size=(1, 1), stride=(1, 1), bias=False)
        (bn3): BatchNorm2d(32, eps=1e-05, momentum=0.1, affine=True, track_running_stats=True)
        (final_act): Identity()
      )
    )
    (2): Sequential(
      (0): InvertedResidual_Share_Act(
        (conv_pw): Conv2d(32, 192, kernel_size=(1, 1), stride=(1, 1), bias=False)
        (bn1): BatchNorm2d(192, eps=1e-05, momentum=0.1, affine=True, track_running_stats=True)
        (act): Changable_Act(
          (act_fun): Learnable_Relu6_Hard()
        )
        (conv_dw): Conv2d(192, 192, kernel_size=(3, 3), stride=(2, 2), padding=(1, 1), groups=192, bias=False)
        (bn2): BatchNorm2d(192, eps=1e-05, momentum=0.1, affine=True, track_running_stats=True)
        (se): Identity()
        (conv_pwl): Conv2d(192, 48, kernel_size=(1, 1), stride=(1, 1), bias=False)
        (bn3): BatchNorm2d(48, eps=1e-05, momentum=0.1, affine=True, track_running_stats=True)
        (final_act): Identity()
      )
      (1): InvertedResidual_Share_Act(
        (conv_pw): Conv2d(48, 288, kernel_size=(1, 1), stride=(1, 1), bias=False)
        (bn1): BatchNorm2d(288, eps=1e-05, momentum=0.1, affine=True, track_running_stats=True)
        (act): Changable_Act(
          (act_fun): Learnable_Relu6_Hard()
        )
        (conv_dw): Conv2d(288, 288, kernel_size=(3, 3), stride=(1, 1), padding=(1, 1), groups=288, bias=False)
        (bn2): BatchNorm2d(288, eps=1e-05, momentum=0.1, affine=True, track_running_stats=True)
        (se): Identity()
        (conv_pwl): Conv2d(288, 48, kernel_size=(1, 1), stride=(1, 1), bias=False)
        (bn3): BatchNorm2d(48, eps=1e-05, momentum=0.1, affine=True, track_running_stats=True)
        (final_act): Identity()
      )
      (2): InvertedResidual_Share_Act(
        (conv_pw): Conv2d(48, 288, kernel_size=(1, 1), stride=(1, 1), bias=False)
        (bn1): BatchNorm2d(288, eps=1e-05, momentum=0.1, affine=True, track_running_stats=True)
        (act): Changable_Act(
          (act_fun): Learnable_Relu6_Hard()
        )
        (conv_dw): Conv2d(288, 288, kernel_size=(3, 3), stride=(1, 1), padding=(1, 1), groups=288, bias=False)
        (bn2): BatchNorm2d(288, eps=1e-05, momentum=0.1, affine=True, track_running_stats=True)
        (se): Identity()
        (conv_pwl): Conv2d(288, 48, kernel_size=(1, 1), stride=(1, 1), bias=False)
        (bn3): BatchNorm2d(48, eps=1e-05, momentum=0.1, affine=True, track_running_stats=True)
        (final_act): Identity()
      )
    )
    (3): Sequential(
      (0): InvertedResidual_Share_Act(
        (conv_pw): Conv2d(48, 288, kernel_size=(1, 1), stride=(1, 1), bias=False)
        (bn1): BatchNorm2d(288, eps=1e-05, momentum=0.1, affine=True, track_running_stats=True)
        (act): Changable_Act(
          (act_fun): Learnable_Relu6_Hard()
        )
        (conv_dw): Conv2d(288, 288, kernel_size=(3, 3), stride=(2, 2), padding=(1, 1), groups=288, bias=False)
        (bn2): BatchNorm2d(288, eps=1e-05, momentum=0.1, affine=True, track_running_stats=True)
        (se): Identity()
        (conv_pwl): Conv2d(288, 88, kernel_size=(1, 1), stride=(1, 1), bias=False)
        (bn3): BatchNorm2d(88, eps=1e-05, momentum=0.1, affine=True, track_running_stats=True)
        (final_act): Identity()
      )
      (1): InvertedResidual_Share_Act(
        (conv_pw): Conv2d(88, 528, kernel_size=(1, 1), stride=(1, 1), bias=False)
        (bn1): BatchNorm2d(528, eps=1e-05, momentum=0.1, affine=True, track_running_stats=True)
        (act): Changable_Act(
          (act_fun): Learnable_Relu6_Hard()
        )
        (conv_dw): Conv2d(528, 528, kernel_size=(3, 3), stride=(1, 1), padding=(1, 1), groups=528, bias=False)
        (bn2): BatchNorm2d(528, eps=1e-05, momentum=0.1, affine=True, track_running_stats=True)
        (se): Identity()
        (conv_pwl): Conv2d(528, 88, kernel_size=(1, 1), stride=(1, 1), bias=False)
        (bn3): BatchNorm2d(88, eps=1e-05, momentum=0.1, affine=True, track_running_stats=True)
        (final_act): Identity()
      )
      (2): InvertedResidual_Share_Act(
        (conv_pw): Conv2d(88, 528, kernel_size=(1, 1), stride=(1, 1), bias=False)
        (bn1): BatchNorm2d(528, eps=1e-05, momentum=0.1, affine=True, track_running_stats=True)
        (act): Changable_Act(
          (act_fun): Learnable_Relu6_Hard()
        )
        (conv_dw): Conv2d(528, 528, kernel_size=(3, 3), stride=(1, 1), padding=(1, 1), groups=528, bias=False)
        (bn2): BatchNorm2d(528, eps=1e-05, momentum=0.1, affine=True, track_running_stats=True)
        (se): Identity()
        (conv_pwl): Conv2d(528, 88, kernel_size=(1, 1), stride=(1, 1), bias=False)
        (bn3): BatchNorm2d(88, eps=1e-05, momentum=0.1, affine=True, track_running_stats=True)
        (final_act): Identity()
      )
      (3): InvertedResidual_Share_Act(
        (conv_pw): Conv2d(88, 528, kernel_size=(1, 1), stride=(1, 1), bias=False)
        (bn1): BatchNorm2d(528, eps=1e-05, momentum=0.1, affine=True, track_running_stats=True)
        (act): Changable_Act(
          (act_fun): Learnable_Relu6_Hard()
        )
        (conv_dw): Conv2d(528, 528, kernel_size=(3, 3), stride=(1, 1), padding=(1, 1), groups=528, bias=False)
        (bn2): BatchNorm2d(528, eps=1e-05, momentum=0.1, affine=True, track_running_stats=True)
        (se): Identity()
        (conv_pwl): Conv2d(528, 88, kernel_size=(1, 1), stride=(1, 1), bias=False)
        (bn3): BatchNorm2d(88, eps=1e-05, momentum=0.1, affine=True, track_running_stats=True)
        (final_act): Identity()
      )
    )
    (4): Sequential(
      (0): InvertedResidual_Share_Act(
        (conv_pw): Conv2d(88, 528, kernel_size=(1, 1), stride=(1, 1), bias=False)
        (bn1): BatchNorm2d(528, eps=1e-05, momentum=0.1, affine=True, track_running_stats=True)
        (act): Changable_Act(
          (act_fun): Learnable_Relu6_Hard()
        )
        (conv_dw): Conv2d(528, 528, kernel_size=(3, 3), stride=(1, 1), padding=(1, 1), groups=528, bias=False)
        (bn2): BatchNorm2d(528, eps=1e-05, momentum=0.1, affine=True, track_running_stats=True)
        (se): Identity()
        (conv_pwl): Conv2d(528, 136, kernel_size=(1, 1), stride=(1, 1), bias=False)
        (bn3): BatchNorm2d(136, eps=1e-05, momentum=0.1, affine=True, track_running_stats=True)
        (final_act): Identity()
      )
      (1): InvertedResidual_Share_Act(
        (conv_pw): Conv2d(136, 816, kernel_size=(1, 1), stride=(1, 1), bias=False)
        (bn1): BatchNorm2d(816, eps=1e-05, momentum=0.1, affine=True, track_running_stats=True)
        (act): Changable_Act(
          (act_fun): Learnable_Relu6_Hard()
        )
        (conv_dw): Conv2d(816, 816, kernel_size=(3, 3), stride=(1, 1), padding=(1, 1), groups=816, bias=False)
        (bn2): BatchNorm2d(816, eps=1e-05, momentum=0.1, affine=True, track_running_stats=True)
        (se): Identity()
        (conv_pwl): Conv2d(816, 136, kernel_size=(1, 1), stride=(1, 1), bias=False)
        (bn3): BatchNorm2d(136, eps=1e-05, momentum=0.1, affine=True, track_running_stats=True)
        (final_act): Identity()
      )
      (2): InvertedResidual_Share_Act(
        (conv_pw): Conv2d(136, 816, kernel_size=(1, 1), stride=(1, 1), bias=False)
        (bn1): BatchNorm2d(816, eps=1e-05, momentum=0.1, affine=True, track_running_stats=True)
        (act): Changable_Act(
          (act_fun): Learnable_Relu6_Hard()
        )
        (conv_dw): Conv2d(816, 816, kernel_size=(3, 3), stride=(1, 1), padding=(1, 1), groups=816, bias=False)
        (bn2): BatchNorm2d(816, eps=1e-05, momentum=0.1, affine=True, track_running_stats=True)
        (se): Identity()
        (conv_pwl): Conv2d(816, 136, kernel_size=(1, 1), stride=(1, 1), bias=False)
        (bn3): BatchNorm2d(136, eps=1e-05, momentum=0.1, affine=True, track_running_stats=True)
        (final_act): Identity()
      )
    )
    (5): Sequential(
      (0): InvertedResidual_Share_Act(
        (conv_pw): Conv2d(136, 816, kernel_size=(1, 1), stride=(1, 1), bias=False)
        (bn1): BatchNorm2d(816, eps=1e-05, momentum=0.1, affine=True, track_running_stats=True)
        (act): Changable_Act(
          (act_fun): Learnable_Relu6_Hard()
        )
        (conv_dw): Conv2d(816, 816, kernel_size=(3, 3), stride=(2, 2), padding=(1, 1), groups=816, bias=False)
        (bn2): BatchNorm2d(816, eps=1e-05, momentum=0.1, affine=True, track_running_stats=True)
        (se): Identity()
        (conv_pwl): Conv2d(816, 224, kernel_size=(1, 1), stride=(1, 1), bias=False)
        (bn3): BatchNorm2d(224, eps=1e-05, momentum=0.1, affine=True, track_running_stats=True)
        (final_act): Identity()
      )
      (1): InvertedResidual_Share_Act(
        (conv_pw): Conv2d(224, 1344, kernel_size=(1, 1), stride=(1, 1), bias=False)
        (bn1): BatchNorm2d(1344, eps=1e-05, momentum=0.1, affine=True, track_running_stats=True)
        (act): Changable_Act(
          (act_fun): Learnable_Relu6_Hard()
        )
        (conv_dw): Conv2d(1344, 1344, kernel_size=(3, 3), stride=(1, 1), padding=(1, 1), groups=1344, bias=False)
        (bn2): BatchNorm2d(1344, eps=1e-05, momentum=0.1, affine=True, track_running_stats=True)
        (se): Identity()
        (conv_pwl): Conv2d(1344, 224, kernel_size=(1, 1), stride=(1, 1), bias=False)
        (bn3): BatchNorm2d(224, eps=1e-05, momentum=0.1, affine=True, track_running_stats=True)
        (final_act): Identity()
      )
      (2): InvertedResidual_Share_Act(
        (conv_pw): Conv2d(224, 1344, kernel_size=(1, 1), stride=(1, 1), bias=False)
        (bn1): BatchNorm2d(1344, eps=1e-05, momentum=0.1, affine=True, track_running_stats=True)
        (act): Changable_Act(
          (act_fun): Learnable_Relu6_Hard()
        )
        (conv_dw): Conv2d(1344, 1344, kernel_size=(3, 3), stride=(1, 1), padding=(1, 1), groups=1344, bias=False)
        (bn2): BatchNorm2d(1344, eps=1e-05, momentum=0.1, affine=True, track_running_stats=True)
        (se): Identity()
        (conv_pwl): Conv2d(1344, 224, kernel_size=(1, 1), stride=(1, 1), bias=False)
        (bn3): BatchNorm2d(224, eps=1e-05, momentum=0.1, affine=True, track_running_stats=True)
        (final_act): Identity()
      )
    )
    (6): Sequential(
      (0): InvertedResidual_Share_Act(
        (conv_pw): Conv2d(224, 1344, kernel_size=(1, 1), stride=(1, 1), bias=False)
        (bn1): BatchNorm2d(1344, eps=1e-05, momentum=0.1, affine=True, track_running_stats=True)
        (act): Changable_Act(
          (act_fun): Learnable_Relu6_Hard()
        )
        (conv_dw): Conv2d(1344, 1344, kernel_size=(3, 3), stride=(1, 1), padding=(1, 1), groups=1344, bias=False)
        (bn2): BatchNorm2d(1344, eps=1e-05, momentum=0.1, affine=True, track_running_stats=True)
        (se): Identity()
        (conv_pwl): Conv2d(1344, 448, kernel_size=(1, 1), stride=(1, 1), bias=False)
        (bn3): BatchNorm2d(448, eps=1e-05, momentum=0.1, affine=True, track_running_stats=True)
        (final_act): Identity()
      )
    )
  )
  (conv_head): Conv2d(448, 1792, kernel_size=(1, 1), stride=(1, 1), bias=False)
  (bn2): BatchNorm2d(1792, eps=1e-05, momentum=0.1, affine=True, track_running_stats=True)
  (act2): Changable_Act(
    (act_fun): Learnable_Relu6_Hard()
  )
  (global_pool): SelectAdaptivePool2d (pool_type=avg, flatten=Flatten(start_dim=1, end_dim=-1))
  (classifier): Linear(in_features=1792, out_features=1000, bias=True)
)
number of params (M): 6.108795
Unsupported operator aten::sub encountered 140 time(s)
Unsupported operator aten::mul encountered 105 time(s)
Unsupported operator aten::add encountered 105 time(s)
Unsupported operator aten::rsub encountered 35 time(s)
Unsupported operator aten::add_ encountered 10 time(s)
number of GFLOPs: 0.60143048
Start training
Creating model:mobilenetv2_140_block_ds/mobilenetv2_140_block_ds
Successfully load pretrained model: /home/mengli/projects/wenxuanzeng/RePriv/mobilenetv2_140_ra-21a4e913.pth
EfficientNet(
  (conv_stem): Conv2d(3, 48, kernel_size=(3, 3), stride=(2, 2), padding=(1, 1), bias=False)
  (bn1): BatchNorm2d(48, eps=1e-05, momentum=0.1, affine=True, track_running_stats=True)
  (act1): Changable_Act(
    (act_fun): Learnable_Relu6_Hard()
  )
  (blocks): Sequential(
    (0): Sequential(
      (0): DepthwiseSeparableConv(
        (conv_dw): Conv2d(48, 48, kernel_size=(3, 3), stride=(1, 1), padding=(1, 1), groups=48, bias=False)
        (bn1): BatchNorm2d(48, eps=1e-05, momentum=0.1, affine=True, track_running_stats=True)
        (act1): Changable_Act(
          (act_fun): Learnable_Relu6_Hard()
        )
        (se): Identity()
        (conv_pw): Conv2d(48, 24, kernel_size=(1, 1), stride=(1, 1), bias=False)
        (bn2): BatchNorm2d(24, eps=1e-05, momentum=0.1, affine=True, track_running_stats=True)
        (act2): Identity()
      )
    )
    (1): Sequential(
      (0): InvertedResidual_Share_Act(
        (conv_pw): Conv2d(24, 144, kernel_size=(1, 1), stride=(1, 1), bias=False)
        (bn1): BatchNorm2d(144, eps=1e-05, momentum=0.1, affine=True, track_running_stats=True)
        (act): Changable_Act(
          (act_fun): Learnable_Relu6_Hard()
        )
        (conv_dw): Conv2d(144, 144, kernel_size=(3, 3), stride=(2, 2), padding=(1, 1), groups=144, bias=False)
        (bn2): BatchNorm2d(144, eps=1e-05, momentum=0.1, affine=True, track_running_stats=True)
        (se): Identity()
        (conv_pwl): Conv2d(144, 32, kernel_size=(1, 1), stride=(1, 1), bias=False)
        (bn3): BatchNorm2d(32, eps=1e-05, momentum=0.1, affine=True, track_running_stats=True)
        (final_act): Identity()
      )
      (1): InvertedResidual_Share_Act(
        (conv_pw): Conv2d(32, 192, kernel_size=(1, 1), stride=(1, 1), bias=False)
        (bn1): BatchNorm2d(192, eps=1e-05, momentum=0.1, affine=True, track_running_stats=True)
        (act): Changable_Act(
          (act_fun): Learnable_Relu6_Hard()
        )
        (conv_dw): Conv2d(192, 192, kernel_size=(3, 3), stride=(1, 1), padding=(1, 1), groups=192, bias=False)
        (bn2): BatchNorm2d(192, eps=1e-05, momentum=0.1, affine=True, track_running_stats=True)
        (se): Identity()
        (conv_pwl): Conv2d(192, 32, kernel_size=(1, 1), stride=(1, 1), bias=False)
        (bn3): BatchNorm2d(32, eps=1e-05, momentum=0.1, affine=True, track_running_stats=True)
        (final_act): Identity()
      )
    )
    (2): Sequential(
      (0): InvertedResidual_Share_Act(
        (conv_pw): Conv2d(32, 192, kernel_size=(1, 1), stride=(1, 1), bias=False)
        (bn1): BatchNorm2d(192, eps=1e-05, momentum=0.1, affine=True, track_running_stats=True)
        (act): Changable_Act(
          (act_fun): Learnable_Relu6_Hard()
        )
        (conv_dw): Conv2d(192, 192, kernel_size=(3, 3), stride=(2, 2), padding=(1, 1), groups=192, bias=False)
        (bn2): BatchNorm2d(192, eps=1e-05, momentum=0.1, affine=True, track_running_stats=True)
        (se): Identity()
        (conv_pwl): Conv2d(192, 48, kernel_size=(1, 1), stride=(1, 1), bias=False)
        (bn3): BatchNorm2d(48, eps=1e-05, momentum=0.1, affine=True, track_running_stats=True)
        (final_act): Identity()
      )
      (1): InvertedResidual_Share_Act(
        (conv_pw): Conv2d(48, 288, kernel_size=(1, 1), stride=(1, 1), bias=False)
        (bn1): BatchNorm2d(288, eps=1e-05, momentum=0.1, affine=True, track_running_stats=True)
        (act): Changable_Act(
          (act_fun): Learnable_Relu6_Hard()
        )
        (conv_dw): Conv2d(288, 288, kernel_size=(3, 3), stride=(1, 1), padding=(1, 1), groups=288, bias=False)
        (bn2): BatchNorm2d(288, eps=1e-05, momentum=0.1, affine=True, track_running_stats=True)
        (se): Identity()
        (conv_pwl): Conv2d(288, 48, kernel_size=(1, 1), stride=(1, 1), bias=False)
        (bn3): BatchNorm2d(48, eps=1e-05, momentum=0.1, affine=True, track_running_stats=True)
        (final_act): Identity()
      )
      (2): InvertedResidual_Share_Act(
        (conv_pw): Conv2d(48, 288, kernel_size=(1, 1), stride=(1, 1), bias=False)
        (bn1): BatchNorm2d(288, eps=1e-05, momentum=0.1, affine=True, track_running_stats=True)
        (act): Changable_Act(
          (act_fun): Learnable_Relu6_Hard()
        )
        (conv_dw): Conv2d(288, 288, kernel_size=(3, 3), stride=(1, 1), padding=(1, 1), groups=288, bias=False)
        (bn2): BatchNorm2d(288, eps=1e-05, momentum=0.1, affine=True, track_running_stats=True)
        (se): Identity()
        (conv_pwl): Conv2d(288, 48, kernel_size=(1, 1), stride=(1, 1), bias=False)
        (bn3): BatchNorm2d(48, eps=1e-05, momentum=0.1, affine=True, track_running_stats=True)
        (final_act): Identity()
      )
    )
    (3): Sequential(
      (0): InvertedResidual_Share_Act(
        (conv_pw): Conv2d(48, 288, kernel_size=(1, 1), stride=(1, 1), bias=False)
        (bn1): BatchNorm2d(288, eps=1e-05, momentum=0.1, affine=True, track_running_stats=True)
        (act): Changable_Act(
          (act_fun): Learnable_Relu6_Hard()
        )
        (conv_dw): Conv2d(288, 288, kernel_size=(3, 3), stride=(2, 2), padding=(1, 1), groups=288, bias=False)
        (bn2): BatchNorm2d(288, eps=1e-05, momentum=0.1, affine=True, track_running_stats=True)
        (se): Identity()
        (conv_pwl): Conv2d(288, 88, kernel_size=(1, 1), stride=(1, 1), bias=False)
        (bn3): BatchNorm2d(88, eps=1e-05, momentum=0.1, affine=True, track_running_stats=True)
        (final_act): Identity()
      )
      (1): InvertedResidual_Share_Act(
        (conv_pw): Conv2d(88, 528, kernel_size=(1, 1), stride=(1, 1), bias=False)
        (bn1): BatchNorm2d(528, eps=1e-05, momentum=0.1, affine=True, track_running_stats=True)
        (act): Changable_Act(
          (act_fun): Learnable_Relu6_Hard()
        )
        (conv_dw): Conv2d(528, 528, kernel_size=(3, 3), stride=(1, 1), padding=(1, 1), groups=528, bias=False)
        (bn2): BatchNorm2d(528, eps=1e-05, momentum=0.1, affine=True, track_running_stats=True)
        (se): Identity()
        (conv_pwl): Conv2d(528, 88, kernel_size=(1, 1), stride=(1, 1), bias=False)
        (bn3): BatchNorm2d(88, eps=1e-05, momentum=0.1, affine=True, track_running_stats=True)
        (final_act): Identity()
      )
      (2): InvertedResidual_Share_Act(
        (conv_pw): Conv2d(88, 528, kernel_size=(1, 1), stride=(1, 1), bias=False)
        (bn1): BatchNorm2d(528, eps=1e-05, momentum=0.1, affine=True, track_running_stats=True)
        (act): Changable_Act(
          (act_fun): Learnable_Relu6_Hard()
        )
        (conv_dw): Conv2d(528, 528, kernel_size=(3, 3), stride=(1, 1), padding=(1, 1), groups=528, bias=False)
        (bn2): BatchNorm2d(528, eps=1e-05, momentum=0.1, affine=True, track_running_stats=True)
        (se): Identity()
        (conv_pwl): Conv2d(528, 88, kernel_size=(1, 1), stride=(1, 1), bias=False)
        (bn3): BatchNorm2d(88, eps=1e-05, momentum=0.1, affine=True, track_running_stats=True)
        (final_act): Identity()
      )
      (3): InvertedResidual_Share_Act(
        (conv_pw): Conv2d(88, 528, kernel_size=(1, 1), stride=(1, 1), bias=False)
        (bn1): BatchNorm2d(528, eps=1e-05, momentum=0.1, affine=True, track_running_stats=True)
        (act): Changable_Act(
          (act_fun): Learnable_Relu6_Hard()
        )
        (conv_dw): Conv2d(528, 528, kernel_size=(3, 3), stride=(1, 1), padding=(1, 1), groups=528, bias=False)
        (bn2): BatchNorm2d(528, eps=1e-05, momentum=0.1, affine=True, track_running_stats=True)
        (se): Identity()
        (conv_pwl): Conv2d(528, 88, kernel_size=(1, 1), stride=(1, 1), bias=False)
        (bn3): BatchNorm2d(88, eps=1e-05, momentum=0.1, affine=True, track_running_stats=True)
        (final_act): Identity()
      )
    )
    (4): Sequential(
      (0): InvertedResidual_Share_Act(
        (conv_pw): Conv2d(88, 528, kernel_size=(1, 1), stride=(1, 1), bias=False)
        (bn1): BatchNorm2d(528, eps=1e-05, momentum=0.1, affine=True, track_running_stats=True)
        (act): Changable_Act(
          (act_fun): Learnable_Relu6_Hard()
        )
        (conv_dw): Conv2d(528, 528, kernel_size=(3, 3), stride=(1, 1), padding=(1, 1), groups=528, bias=False)
        (bn2): BatchNorm2d(528, eps=1e-05, momentum=0.1, affine=True, track_running_stats=True)
        (se): Identity()
        (conv_pwl): Conv2d(528, 136, kernel_size=(1, 1), stride=(1, 1), bias=False)
        (bn3): BatchNorm2d(136, eps=1e-05, momentum=0.1, affine=True, track_running_stats=True)
        (final_act): Identity()
      )
      (1): InvertedResidual_Share_Act(
        (conv_pw): Conv2d(136, 816, kernel_size=(1, 1), stride=(1, 1), bias=False)
        (bn1): BatchNorm2d(816, eps=1e-05, momentum=0.1, affine=True, track_running_stats=True)
        (act): Changable_Act(
          (act_fun): Learnable_Relu6_Hard()
        )
        (conv_dw): Conv2d(816, 816, kernel_size=(3, 3), stride=(1, 1), padding=(1, 1), groups=816, bias=False)
        (bn2): BatchNorm2d(816, eps=1e-05, momentum=0.1, affine=True, track_running_stats=True)
        (se): Identity()
        (conv_pwl): Conv2d(816, 136, kernel_size=(1, 1), stride=(1, 1), bias=False)
        (bn3): BatchNorm2d(136, eps=1e-05, momentum=0.1, affine=True, track_running_stats=True)
        (final_act): Identity()
      )
      (2): InvertedResidual_Share_Act(
        (conv_pw): Conv2d(136, 816, kernel_size=(1, 1), stride=(1, 1), bias=False)
        (bn1): BatchNorm2d(816, eps=1e-05, momentum=0.1, affine=True, track_running_stats=True)
        (act): Changable_Act(
          (act_fun): Learnable_Relu6_Hard()
        )
        (conv_dw): Conv2d(816, 816, kernel_size=(3, 3), stride=(1, 1), padding=(1, 1), groups=816, bias=False)
        (bn2): BatchNorm2d(816, eps=1e-05, momentum=0.1, affine=True, track_running_stats=True)
        (se): Identity()
        (conv_pwl): Conv2d(816, 136, kernel_size=(1, 1), stride=(1, 1), bias=False)
        (bn3): BatchNorm2d(136, eps=1e-05, momentum=0.1, affine=True, track_running_stats=True)
        (final_act): Identity()
      )
    )
    (5): Sequential(
      (0): InvertedResidual_Share_Act(
        (conv_pw): Conv2d(136, 816, kernel_size=(1, 1), stride=(1, 1), bias=False)
        (bn1): BatchNorm2d(816, eps=1e-05, momentum=0.1, affine=True, track_running_stats=True)
        (act): Changable_Act(
          (act_fun): Learnable_Relu6_Hard()
        )
        (conv_dw): Conv2d(816, 816, kernel_size=(3, 3), stride=(2, 2), padding=(1, 1), groups=816, bias=False)
        (bn2): BatchNorm2d(816, eps=1e-05, momentum=0.1, affine=True, track_running_stats=True)
        (se): Identity()
        (conv_pwl): Conv2d(816, 224, kernel_size=(1, 1), stride=(1, 1), bias=False)
        (bn3): BatchNorm2d(224, eps=1e-05, momentum=0.1, affine=True, track_running_stats=True)
        (final_act): Identity()
      )
      (1): InvertedResidual_Share_Act(
        (conv_pw): Conv2d(224, 1344, kernel_size=(1, 1), stride=(1, 1), bias=False)
        (bn1): BatchNorm2d(1344, eps=1e-05, momentum=0.1, affine=True, track_running_stats=True)
        (act): Changable_Act(
          (act_fun): Learnable_Relu6_Hard()
        )
        (conv_dw): Conv2d(1344, 1344, kernel_size=(3, 3), stride=(1, 1), padding=(1, 1), groups=1344, bias=False)
        (bn2): BatchNorm2d(1344, eps=1e-05, momentum=0.1, affine=True, track_running_stats=True)
        (se): Identity()
        (conv_pwl): Conv2d(1344, 224, kernel_size=(1, 1), stride=(1, 1), bias=False)
        (bn3): BatchNorm2d(224, eps=1e-05, momentum=0.1, affine=True, track_running_stats=True)
        (final_act): Identity()
      )
      (2): InvertedResidual_Share_Act(
        (conv_pw): Conv2d(224, 1344, kernel_size=(1, 1), stride=(1, 1), bias=False)
        (bn1): BatchNorm2d(1344, eps=1e-05, momentum=0.1, affine=True, track_running_stats=True)
        (act): Changable_Act(
          (act_fun): Learnable_Relu6_Hard()
        )
        (conv_dw): Conv2d(1344, 1344, kernel_size=(3, 3), stride=(1, 1), padding=(1, 1), groups=1344, bias=False)
        (bn2): BatchNorm2d(1344, eps=1e-05, momentum=0.1, affine=True, track_running_stats=True)
        (se): Identity()
        (conv_pwl): Conv2d(1344, 224, kernel_size=(1, 1), stride=(1, 1), bias=False)
        (bn3): BatchNorm2d(224, eps=1e-05, momentum=0.1, affine=True, track_running_stats=True)
        (final_act): Identity()
      )
    )
    (6): Sequential(
      (0): InvertedResidual_Share_Act(
        (conv_pw): Conv2d(224, 1344, kernel_size=(1, 1), stride=(1, 1), bias=False)
        (bn1): BatchNorm2d(1344, eps=1e-05, momentum=0.1, affine=True, track_running_stats=True)
        (act): Changable_Act(
          (act_fun): Learnable_Relu6_Hard()
        )
        (conv_dw): Conv2d(1344, 1344, kernel_size=(3, 3), stride=(1, 1), padding=(1, 1), groups=1344, bias=False)
        (bn2): BatchNorm2d(1344, eps=1e-05, momentum=0.1, affine=True, track_running_stats=True)
        (se): Identity()
        (conv_pwl): Conv2d(1344, 448, kernel_size=(1, 1), stride=(1, 1), bias=False)
        (bn3): BatchNorm2d(448, eps=1e-05, momentum=0.1, affine=True, track_running_stats=True)
        (final_act): Identity()
      )
    )
  )
  (conv_head): Conv2d(448, 1792, kernel_size=(1, 1), stride=(1, 1), bias=False)
  (bn2): BatchNorm2d(1792, eps=1e-05, momentum=0.1, affine=True, track_running_stats=True)
  (act2): Changable_Act(
    (act_fun): Learnable_Relu6_Hard()
  )
  (global_pool): SelectAdaptivePool2d (pool_type=avg, flatten=Flatten(start_dim=1, end_dim=-1))
  (classifier): Linear(in_features=1792, out_features=1000, bias=True)
)
number of params (M): 6.108795
Unsupported operator aten::sub encountered 140 time(s)
Unsupported operator aten::mul encountered 105 time(s)
Unsupported operator aten::add encountered 105 time(s)
Unsupported operator aten::rsub encountered 35 time(s)
Unsupported operator aten::add_ encountered 10 time(s)
number of GFLOPs: 0.60143048
Start training
Train: [0/180][0/10009]	eta 7 days, 13:47:33 lr 0.100000	data 1.5561 (1.5561)	batch 65.3865 (65.3865)	loss 37.5579 (37.5579)	grad_norm 123.6529 (123.6529)	mem 22427MB
Creating model:mobilenetv2_140_block_ds/mobilenetv2_140_block_ds
Successfully load pretrained model: /home/mengli/projects/wenxuanzeng/RePriv/mobilenetv2_140_ra-21a4e913.pth
EfficientNet(
  (conv_stem): Conv2d(3, 48, kernel_size=(3, 3), stride=(2, 2), padding=(1, 1), bias=False)
  (bn1): BatchNorm2d(48, eps=1e-05, momentum=0.1, affine=True, track_running_stats=True)
  (act1): Changable_Act(
    (act_fun): Learnable_Relu6_Hard()
  )
  (blocks): Sequential(
    (0): Sequential(
      (0): DepthwiseSeparableConv(
        (conv_dw): Conv2d(48, 48, kernel_size=(3, 3), stride=(1, 1), padding=(1, 1), groups=48, bias=False)
        (bn1): BatchNorm2d(48, eps=1e-05, momentum=0.1, affine=True, track_running_stats=True)
        (act1): Changable_Act(
          (act_fun): Learnable_Relu6_Hard()
        )
        (se): Identity()
        (conv_pw): Conv2d(48, 24, kernel_size=(1, 1), stride=(1, 1), bias=False)
        (bn2): BatchNorm2d(24, eps=1e-05, momentum=0.1, affine=True, track_running_stats=True)
        (act2): Identity()
      )
    )
    (1): Sequential(
      (0): InvertedResidual_Share_Act(
        (conv_pw): Conv2d(24, 144, kernel_size=(1, 1), stride=(1, 1), bias=False)
        (bn1): BatchNorm2d(144, eps=1e-05, momentum=0.1, affine=True, track_running_stats=True)
        (act): Changable_Act(
          (act_fun): Learnable_Relu6_Hard()
        )
        (conv_dw): Conv2d(144, 144, kernel_size=(3, 3), stride=(2, 2), padding=(1, 1), groups=144, bias=False)
        (bn2): BatchNorm2d(144, eps=1e-05, momentum=0.1, affine=True, track_running_stats=True)
        (se): Identity()
        (conv_pwl): Conv2d(144, 32, kernel_size=(1, 1), stride=(1, 1), bias=False)
        (bn3): BatchNorm2d(32, eps=1e-05, momentum=0.1, affine=True, track_running_stats=True)
        (final_act): Identity()
      )
      (1): InvertedResidual_Share_Act(
        (conv_pw): Conv2d(32, 192, kernel_size=(1, 1), stride=(1, 1), bias=False)
        (bn1): BatchNorm2d(192, eps=1e-05, momentum=0.1, affine=True, track_running_stats=True)
        (act): Changable_Act(
          (act_fun): Learnable_Relu6_Hard()
        )
        (conv_dw): Conv2d(192, 192, kernel_size=(3, 3), stride=(1, 1), padding=(1, 1), groups=192, bias=False)
        (bn2): BatchNorm2d(192, eps=1e-05, momentum=0.1, affine=True, track_running_stats=True)
        (se): Identity()
        (conv_pwl): Conv2d(192, 32, kernel_size=(1, 1), stride=(1, 1), bias=False)
        (bn3): BatchNorm2d(32, eps=1e-05, momentum=0.1, affine=True, track_running_stats=True)
        (final_act): Identity()
      )
    )
    (2): Sequential(
      (0): InvertedResidual_Share_Act(
        (conv_pw): Conv2d(32, 192, kernel_size=(1, 1), stride=(1, 1), bias=False)
        (bn1): BatchNorm2d(192, eps=1e-05, momentum=0.1, affine=True, track_running_stats=True)
        (act): Changable_Act(
          (act_fun): Learnable_Relu6_Hard()
        )
        (conv_dw): Conv2d(192, 192, kernel_size=(3, 3), stride=(2, 2), padding=(1, 1), groups=192, bias=False)
        (bn2): BatchNorm2d(192, eps=1e-05, momentum=0.1, affine=True, track_running_stats=True)
        (se): Identity()
        (conv_pwl): Conv2d(192, 48, kernel_size=(1, 1), stride=(1, 1), bias=False)
        (bn3): BatchNorm2d(48, eps=1e-05, momentum=0.1, affine=True, track_running_stats=True)
        (final_act): Identity()
      )
      (1): InvertedResidual_Share_Act(
        (conv_pw): Conv2d(48, 288, kernel_size=(1, 1), stride=(1, 1), bias=False)
        (bn1): BatchNorm2d(288, eps=1e-05, momentum=0.1, affine=True, track_running_stats=True)
        (act): Changable_Act(
          (act_fun): Learnable_Relu6_Hard()
        )
        (conv_dw): Conv2d(288, 288, kernel_size=(3, 3), stride=(1, 1), padding=(1, 1), groups=288, bias=False)
        (bn2): BatchNorm2d(288, eps=1e-05, momentum=0.1, affine=True, track_running_stats=True)
        (se): Identity()
        (conv_pwl): Conv2d(288, 48, kernel_size=(1, 1), stride=(1, 1), bias=False)
        (bn3): BatchNorm2d(48, eps=1e-05, momentum=0.1, affine=True, track_running_stats=True)
        (final_act): Identity()
      )
      (2): InvertedResidual_Share_Act(
        (conv_pw): Conv2d(48, 288, kernel_size=(1, 1), stride=(1, 1), bias=False)
        (bn1): BatchNorm2d(288, eps=1e-05, momentum=0.1, affine=True, track_running_stats=True)
        (act): Changable_Act(
          (act_fun): Learnable_Relu6_Hard()
        )
        (conv_dw): Conv2d(288, 288, kernel_size=(3, 3), stride=(1, 1), padding=(1, 1), groups=288, bias=False)
        (bn2): BatchNorm2d(288, eps=1e-05, momentum=0.1, affine=True, track_running_stats=True)
        (se): Identity()
        (conv_pwl): Conv2d(288, 48, kernel_size=(1, 1), stride=(1, 1), bias=False)
        (bn3): BatchNorm2d(48, eps=1e-05, momentum=0.1, affine=True, track_running_stats=True)
        (final_act): Identity()
      )
    )
    (3): Sequential(
      (0): InvertedResidual_Share_Act(
        (conv_pw): Conv2d(48, 288, kernel_size=(1, 1), stride=(1, 1), bias=False)
        (bn1): BatchNorm2d(288, eps=1e-05, momentum=0.1, affine=True, track_running_stats=True)
        (act): Changable_Act(
          (act_fun): Learnable_Relu6_Hard()
        )
        (conv_dw): Conv2d(288, 288, kernel_size=(3, 3), stride=(2, 2), padding=(1, 1), groups=288, bias=False)
        (bn2): BatchNorm2d(288, eps=1e-05, momentum=0.1, affine=True, track_running_stats=True)
        (se): Identity()
        (conv_pwl): Conv2d(288, 88, kernel_size=(1, 1), stride=(1, 1), bias=False)
        (bn3): BatchNorm2d(88, eps=1e-05, momentum=0.1, affine=True, track_running_stats=True)
        (final_act): Identity()
      )
      (1): InvertedResidual_Share_Act(
        (conv_pw): Conv2d(88, 528, kernel_size=(1, 1), stride=(1, 1), bias=False)
        (bn1): BatchNorm2d(528, eps=1e-05, momentum=0.1, affine=True, track_running_stats=True)
        (act): Changable_Act(
          (act_fun): Learnable_Relu6_Hard()
        )
        (conv_dw): Conv2d(528, 528, kernel_size=(3, 3), stride=(1, 1), padding=(1, 1), groups=528, bias=False)
        (bn2): BatchNorm2d(528, eps=1e-05, momentum=0.1, affine=True, track_running_stats=True)
        (se): Identity()
        (conv_pwl): Conv2d(528, 88, kernel_size=(1, 1), stride=(1, 1), bias=False)
        (bn3): BatchNorm2d(88, eps=1e-05, momentum=0.1, affine=True, track_running_stats=True)
        (final_act): Identity()
      )
      (2): InvertedResidual_Share_Act(
        (conv_pw): Conv2d(88, 528, kernel_size=(1, 1), stride=(1, 1), bias=False)
        (bn1): BatchNorm2d(528, eps=1e-05, momentum=0.1, affine=True, track_running_stats=True)
        (act): Changable_Act(
          (act_fun): Learnable_Relu6_Hard()
        )
        (conv_dw): Conv2d(528, 528, kernel_size=(3, 3), stride=(1, 1), padding=(1, 1), groups=528, bias=False)
        (bn2): BatchNorm2d(528, eps=1e-05, momentum=0.1, affine=True, track_running_stats=True)
        (se): Identity()
        (conv_pwl): Conv2d(528, 88, kernel_size=(1, 1), stride=(1, 1), bias=False)
        (bn3): BatchNorm2d(88, eps=1e-05, momentum=0.1, affine=True, track_running_stats=True)
        (final_act): Identity()
      )
      (3): InvertedResidual_Share_Act(
        (conv_pw): Conv2d(88, 528, kernel_size=(1, 1), stride=(1, 1), bias=False)
        (bn1): BatchNorm2d(528, eps=1e-05, momentum=0.1, affine=True, track_running_stats=True)
        (act): Changable_Act(
          (act_fun): Learnable_Relu6_Hard()
        )
        (conv_dw): Conv2d(528, 528, kernel_size=(3, 3), stride=(1, 1), padding=(1, 1), groups=528, bias=False)
        (bn2): BatchNorm2d(528, eps=1e-05, momentum=0.1, affine=True, track_running_stats=True)
        (se): Identity()
        (conv_pwl): Conv2d(528, 88, kernel_size=(1, 1), stride=(1, 1), bias=False)
        (bn3): BatchNorm2d(88, eps=1e-05, momentum=0.1, affine=True, track_running_stats=True)
        (final_act): Identity()
      )
    )
    (4): Sequential(
      (0): InvertedResidual_Share_Act(
        (conv_pw): Conv2d(88, 528, kernel_size=(1, 1), stride=(1, 1), bias=False)
        (bn1): BatchNorm2d(528, eps=1e-05, momentum=0.1, affine=True, track_running_stats=True)
        (act): Changable_Act(
          (act_fun): Learnable_Relu6_Hard()
        )
        (conv_dw): Conv2d(528, 528, kernel_size=(3, 3), stride=(1, 1), padding=(1, 1), groups=528, bias=False)
        (bn2): BatchNorm2d(528, eps=1e-05, momentum=0.1, affine=True, track_running_stats=True)
        (se): Identity()
        (conv_pwl): Conv2d(528, 136, kernel_size=(1, 1), stride=(1, 1), bias=False)
        (bn3): BatchNorm2d(136, eps=1e-05, momentum=0.1, affine=True, track_running_stats=True)
        (final_act): Identity()
      )
      (1): InvertedResidual_Share_Act(
        (conv_pw): Conv2d(136, 816, kernel_size=(1, 1), stride=(1, 1), bias=False)
        (bn1): BatchNorm2d(816, eps=1e-05, momentum=0.1, affine=True, track_running_stats=True)
        (act): Changable_Act(
          (act_fun): Learnable_Relu6_Hard()
        )
        (conv_dw): Conv2d(816, 816, kernel_size=(3, 3), stride=(1, 1), padding=(1, 1), groups=816, bias=False)
        (bn2): BatchNorm2d(816, eps=1e-05, momentum=0.1, affine=True, track_running_stats=True)
        (se): Identity()
        (conv_pwl): Conv2d(816, 136, kernel_size=(1, 1), stride=(1, 1), bias=False)
        (bn3): BatchNorm2d(136, eps=1e-05, momentum=0.1, affine=True, track_running_stats=True)
        (final_act): Identity()
      )
      (2): InvertedResidual_Share_Act(
        (conv_pw): Conv2d(136, 816, kernel_size=(1, 1), stride=(1, 1), bias=False)
        (bn1): BatchNorm2d(816, eps=1e-05, momentum=0.1, affine=True, track_running_stats=True)
        (act): Changable_Act(
          (act_fun): Learnable_Relu6_Hard()
        )
        (conv_dw): Conv2d(816, 816, kernel_size=(3, 3), stride=(1, 1), padding=(1, 1), groups=816, bias=False)
        (bn2): BatchNorm2d(816, eps=1e-05, momentum=0.1, affine=True, track_running_stats=True)
        (se): Identity()
        (conv_pwl): Conv2d(816, 136, kernel_size=(1, 1), stride=(1, 1), bias=False)
        (bn3): BatchNorm2d(136, eps=1e-05, momentum=0.1, affine=True, track_running_stats=True)
        (final_act): Identity()
      )
    )
    (5): Sequential(
      (0): InvertedResidual_Share_Act(
        (conv_pw): Conv2d(136, 816, kernel_size=(1, 1), stride=(1, 1), bias=False)
        (bn1): BatchNorm2d(816, eps=1e-05, momentum=0.1, affine=True, track_running_stats=True)
        (act): Changable_Act(
          (act_fun): Learnable_Relu6_Hard()
        )
        (conv_dw): Conv2d(816, 816, kernel_size=(3, 3), stride=(2, 2), padding=(1, 1), groups=816, bias=False)
        (bn2): BatchNorm2d(816, eps=1e-05, momentum=0.1, affine=True, track_running_stats=True)
        (se): Identity()
        (conv_pwl): Conv2d(816, 224, kernel_size=(1, 1), stride=(1, 1), bias=False)
        (bn3): BatchNorm2d(224, eps=1e-05, momentum=0.1, affine=True, track_running_stats=True)
        (final_act): Identity()
      )
      (1): InvertedResidual_Share_Act(
        (conv_pw): Conv2d(224, 1344, kernel_size=(1, 1), stride=(1, 1), bias=False)
        (bn1): BatchNorm2d(1344, eps=1e-05, momentum=0.1, affine=True, track_running_stats=True)
        (act): Changable_Act(
          (act_fun): Learnable_Relu6_Hard()
        )
        (conv_dw): Conv2d(1344, 1344, kernel_size=(3, 3), stride=(1, 1), padding=(1, 1), groups=1344, bias=False)
        (bn2): BatchNorm2d(1344, eps=1e-05, momentum=0.1, affine=True, track_running_stats=True)
        (se): Identity()
        (conv_pwl): Conv2d(1344, 224, kernel_size=(1, 1), stride=(1, 1), bias=False)
        (bn3): BatchNorm2d(224, eps=1e-05, momentum=0.1, affine=True, track_running_stats=True)
        (final_act): Identity()
      )
      (2): InvertedResidual_Share_Act(
        (conv_pw): Conv2d(224, 1344, kernel_size=(1, 1), stride=(1, 1), bias=False)
        (bn1): BatchNorm2d(1344, eps=1e-05, momentum=0.1, affine=True, track_running_stats=True)
        (act): Changable_Act(
          (act_fun): Learnable_Relu6_Hard()
        )
        (conv_dw): Conv2d(1344, 1344, kernel_size=(3, 3), stride=(1, 1), padding=(1, 1), groups=1344, bias=False)
        (bn2): BatchNorm2d(1344, eps=1e-05, momentum=0.1, affine=True, track_running_stats=True)
        (se): Identity()
        (conv_pwl): Conv2d(1344, 224, kernel_size=(1, 1), stride=(1, 1), bias=False)
        (bn3): BatchNorm2d(224, eps=1e-05, momentum=0.1, affine=True, track_running_stats=True)
        (final_act): Identity()
      )
    )
    (6): Sequential(
      (0): InvertedResidual_Share_Act(
        (conv_pw): Conv2d(224, 1344, kernel_size=(1, 1), stride=(1, 1), bias=False)
        (bn1): BatchNorm2d(1344, eps=1e-05, momentum=0.1, affine=True, track_running_stats=True)
        (act): Changable_Act(
          (act_fun): Learnable_Relu6_Hard()
        )
        (conv_dw): Conv2d(1344, 1344, kernel_size=(3, 3), stride=(1, 1), padding=(1, 1), groups=1344, bias=False)
        (bn2): BatchNorm2d(1344, eps=1e-05, momentum=0.1, affine=True, track_running_stats=True)
        (se): Identity()
        (conv_pwl): Conv2d(1344, 448, kernel_size=(1, 1), stride=(1, 1), bias=False)
        (bn3): BatchNorm2d(448, eps=1e-05, momentum=0.1, affine=True, track_running_stats=True)
        (final_act): Identity()
      )
    )
  )
  (conv_head): Conv2d(448, 1792, kernel_size=(1, 1), stride=(1, 1), bias=False)
  (bn2): BatchNorm2d(1792, eps=1e-05, momentum=0.1, affine=True, track_running_stats=True)
  (act2): Changable_Act(
    (act_fun): Learnable_Relu6_Hard()
  )
  (global_pool): SelectAdaptivePool2d (pool_type=avg, flatten=Flatten(start_dim=1, end_dim=-1))
  (classifier): Linear(in_features=1792, out_features=1000, bias=True)
)
number of params (M): 6.108795
Unsupported operator aten::sub encountered 140 time(s)
Unsupported operator aten::mul encountered 105 time(s)
Unsupported operator aten::add encountered 105 time(s)
Unsupported operator aten::rsub encountered 35 time(s)
Unsupported operator aten::add_ encountered 10 time(s)
number of GFLOPs: 0.60143048
Start training
Train: [0/180][0/10009]	eta 19:49:38 lr 0.100000	data 1.6211 (1.6211)	batch 7.1315 (7.1315)	loss 36.5797 (36.5797)	grad_norm 111.4124 (111.4124)	mem 22427MB
…
Train: [0/180][6/10009]	eta 21:25:04 lr 0.100000	data 0.0006 (0.2322)	batch 6.7889 (7.7081)	loss 6.0189 (10.0855)	grad_norm 4.9786 (21.2187)	mem 22550MB
Train: [0/180][7/10009]	eta 1 day, 0:25:01 lr 0.100000	data 0.0007 (0.2032)	batch 16.3502 (8.7884)	loss 5.8864 (9.5606)	grad_norm 4.9322 (19.1828)	mem 22550MB
Train: [0/180][8/10009]	eta 1 day, 1:19:31 lr 0.100000	data 0.0007 (0.1807)	batch 11.7389 (9.1162)	loss 5.6609 (9.1273)	grad_norm 4.9548 (17.6019)	mem 22550MB
Creating model:mobilenetv2_140_block_ds/mobilenetv2_140_block_ds
Successfully load pretrained model: /home/mengli/projects/wenxuanzeng/RePriv/mobilenetv2_140_ra-21a4e913.pth
EfficientNet(
  (conv_stem): Conv2d(3, 48, kernel_size=(3, 3), stride=(2, 2), padding=(1, 1), bias=False)
  (bn1): BatchNorm2d(48, eps=1e-05, momentum=0.1, affine=True, track_running_stats=True)
  (act1): Changable_Act(
    (act_fun): Learnable_Relu6_Hard()
  )
  (blocks): Sequential(
    (0): Sequential(
      (0): DepthwiseSeparableConv(
        (conv_dw): Conv2d(48, 48, kernel_size=(3, 3), stride=(1, 1), padding=(1, 1), groups=48, bias=False)
        (bn1): BatchNorm2d(48, eps=1e-05, momentum=0.1, affine=True, track_running_stats=True)
        (act1): Changable_Act(
          (act_fun): Learnable_Relu6_Hard()
        )
        (se): Identity()
        (conv_pw): Conv2d(48, 24, kernel_size=(1, 1), stride=(1, 1), bias=False)
        (bn2): BatchNorm2d(24, eps=1e-05, momentum=0.1, affine=True, track_running_stats=True)
        (act2): Identity()
      )
    )
    (1): Sequential(
      (0): InvertedResidual_Share_Act(
        (conv_pw): Conv2d(24, 144, kernel_size=(1, 1), stride=(1, 1), bias=False)
        (bn1): BatchNorm2d(144, eps=1e-05, momentum=0.1, affine=True, track_running_stats=True)
        (act): Changable_Act(
          (act_fun): Learnable_Relu6_Hard()
        )
        (conv_dw): Conv2d(144, 144, kernel_size=(3, 3), stride=(2, 2), padding=(1, 1), groups=144, bias=False)
        (bn2): BatchNorm2d(144, eps=1e-05, momentum=0.1, affine=True, track_running_stats=True)
        (se): Identity()
        (conv_pwl): Conv2d(144, 32, kernel_size=(1, 1), stride=(1, 1), bias=False)
        (bn3): BatchNorm2d(32, eps=1e-05, momentum=0.1, affine=True, track_running_stats=True)
        (final_act): Identity()
      )
      (1): InvertedResidual_Share_Act(
        (conv_pw): Conv2d(32, 192, kernel_size=(1, 1), stride=(1, 1), bias=False)
        (bn1): BatchNorm2d(192, eps=1e-05, momentum=0.1, affine=True, track_running_stats=True)
        (act): Changable_Act(
          (act_fun): Learnable_Relu6_Hard()
        )
        (conv_dw): Conv2d(192, 192, kernel_size=(3, 3), stride=(1, 1), padding=(1, 1), groups=192, bias=False)
        (bn2): BatchNorm2d(192, eps=1e-05, momentum=0.1, affine=True, track_running_stats=True)
        (se): Identity()
        (conv_pwl): Conv2d(192, 32, kernel_size=(1, 1), stride=(1, 1), bias=False)
        (bn3): BatchNorm2d(32, eps=1e-05, momentum=0.1, affine=True, track_running_stats=True)
        (final_act): Identity()
      )
    )
    (2): Sequential(
      (0): InvertedResidual_Share_Act(
        (conv_pw): Conv2d(32, 192, kernel_size=(1, 1), stride=(1, 1), bias=False)
        (bn1): BatchNorm2d(192, eps=1e-05, momentum=0.1, affine=True, track_running_stats=True)
        (act): Changable_Act(
          (act_fun): Learnable_Relu6_Hard()
        )
        (conv_dw): Conv2d(192, 192, kernel_size=(3, 3), stride=(2, 2), padding=(1, 1), groups=192, bias=False)
        (bn2): BatchNorm2d(192, eps=1e-05, momentum=0.1, affine=True, track_running_stats=True)
        (se): Identity()
        (conv_pwl): Conv2d(192, 48, kernel_size=(1, 1), stride=(1, 1), bias=False)
        (bn3): BatchNorm2d(48, eps=1e-05, momentum=0.1, affine=True, track_running_stats=True)
        (final_act): Identity()
      )
      (1): InvertedResidual_Share_Act(
        (conv_pw): Conv2d(48, 288, kernel_size=(1, 1), stride=(1, 1), bias=False)
        (bn1): BatchNorm2d(288, eps=1e-05, momentum=0.1, affine=True, track_running_stats=True)
        (act): Changable_Act(
          (act_fun): Learnable_Relu6_Hard()
        )
        (conv_dw): Conv2d(288, 288, kernel_size=(3, 3), stride=(1, 1), padding=(1, 1), groups=288, bias=False)
        (bn2): BatchNorm2d(288, eps=1e-05, momentum=0.1, affine=True, track_running_stats=True)
        (se): Identity()
        (conv_pwl): Conv2d(288, 48, kernel_size=(1, 1), stride=(1, 1), bias=False)
        (bn3): BatchNorm2d(48, eps=1e-05, momentum=0.1, affine=True, track_running_stats=True)
        (final_act): Identity()
      )
      (2): InvertedResidual_Share_Act(
        (conv_pw): Conv2d(48, 288, kernel_size=(1, 1), stride=(1, 1), bias=False)
        (bn1): BatchNorm2d(288, eps=1e-05, momentum=0.1, affine=True, track_running_stats=True)
        (act): Changable_Act(
          (act_fun): Learnable_Relu6_Hard()
        )
        (conv_dw): Conv2d(288, 288, kernel_size=(3, 3), stride=(1, 1), padding=(1, 1), groups=288, bias=False)
        (bn2): BatchNorm2d(288, eps=1e-05, momentum=0.1, affine=True, track_running_stats=True)
        (se): Identity()
        (conv_pwl): Conv2d(288, 48, kernel_size=(1, 1), stride=(1, 1), bias=False)
        (bn3): BatchNorm2d(48, eps=1e-05, momentum=0.1, affine=True, track_running_stats=True)
        (final_act): Identity()
      )
    )
    (3): Sequential(
      (0): InvertedResidual_Share_Act(
        (conv_pw): Conv2d(48, 288, kernel_size=(1, 1), stride=(1, 1), bias=False)
        (bn1): BatchNorm2d(288, eps=1e-05, momentum=0.1, affine=True, track_running_stats=True)
        (act): Changable_Act(
          (act_fun): Learnable_Relu6_Hard()
        )
        (conv_dw): Conv2d(288, 288, kernel_size=(3, 3), stride=(2, 2), padding=(1, 1), groups=288, bias=False)
        (bn2): BatchNorm2d(288, eps=1e-05, momentum=0.1, affine=True, track_running_stats=True)
        (se): Identity()
        (conv_pwl): Conv2d(288, 88, kernel_size=(1, 1), stride=(1, 1), bias=False)
        (bn3): BatchNorm2d(88, eps=1e-05, momentum=0.1, affine=True, track_running_stats=True)
        (final_act): Identity()
      )
      (1): InvertedResidual_Share_Act(
        (conv_pw): Conv2d(88, 528, kernel_size=(1, 1), stride=(1, 1), bias=False)
        (bn1): BatchNorm2d(528, eps=1e-05, momentum=0.1, affine=True, track_running_stats=True)
        (act): Changable_Act(
          (act_fun): Learnable_Relu6_Hard()
        )
        (conv_dw): Conv2d(528, 528, kernel_size=(3, 3), stride=(1, 1), padding=(1, 1), groups=528, bias=False)
        (bn2): BatchNorm2d(528, eps=1e-05, momentum=0.1, affine=True, track_running_stats=True)
        (se): Identity()
        (conv_pwl): Conv2d(528, 88, kernel_size=(1, 1), stride=(1, 1), bias=False)
        (bn3): BatchNorm2d(88, eps=1e-05, momentum=0.1, affine=True, track_running_stats=True)
        (final_act): Identity()
      )
      (2): InvertedResidual_Share_Act(
        (conv_pw): Conv2d(88, 528, kernel_size=(1, 1), stride=(1, 1), bias=False)
        (bn1): BatchNorm2d(528, eps=1e-05, momentum=0.1, affine=True, track_running_stats=True)
        (act): Changable_Act(
          (act_fun): Learnable_Relu6_Hard()
        )
        (conv_dw): Conv2d(528, 528, kernel_size=(3, 3), stride=(1, 1), padding=(1, 1), groups=528, bias=False)
        (bn2): BatchNorm2d(528, eps=1e-05, momentum=0.1, affine=True, track_running_stats=True)
        (se): Identity()
        (conv_pwl): Conv2d(528, 88, kernel_size=(1, 1), stride=(1, 1), bias=False)
        (bn3): BatchNorm2d(88, eps=1e-05, momentum=0.1, affine=True, track_running_stats=True)
        (final_act): Identity()
      )
      (3): InvertedResidual_Share_Act(
        (conv_pw): Conv2d(88, 528, kernel_size=(1, 1), stride=(1, 1), bias=False)
        (bn1): BatchNorm2d(528, eps=1e-05, momentum=0.1, affine=True, track_running_stats=True)
        (act): Changable_Act(
          (act_fun): Learnable_Relu6_Hard()
        )
        (conv_dw): Conv2d(528, 528, kernel_size=(3, 3), stride=(1, 1), padding=(1, 1), groups=528, bias=False)
        (bn2): BatchNorm2d(528, eps=1e-05, momentum=0.1, affine=True, track_running_stats=True)
        (se): Identity()
        (conv_pwl): Conv2d(528, 88, kernel_size=(1, 1), stride=(1, 1), bias=False)
        (bn3): BatchNorm2d(88, eps=1e-05, momentum=0.1, affine=True, track_running_stats=True)
        (final_act): Identity()
      )
    )
    (4): Sequential(
      (0): InvertedResidual_Share_Act(
        (conv_pw): Conv2d(88, 528, kernel_size=(1, 1), stride=(1, 1), bias=False)
        (bn1): BatchNorm2d(528, eps=1e-05, momentum=0.1, affine=True, track_running_stats=True)
        (act): Changable_Act(
          (act_fun): Learnable_Relu6_Hard()
        )
        (conv_dw): Conv2d(528, 528, kernel_size=(3, 3), stride=(1, 1), padding=(1, 1), groups=528, bias=False)
        (bn2): BatchNorm2d(528, eps=1e-05, momentum=0.1, affine=True, track_running_stats=True)
        (se): Identity()
        (conv_pwl): Conv2d(528, 136, kernel_size=(1, 1), stride=(1, 1), bias=False)
        (bn3): BatchNorm2d(136, eps=1e-05, momentum=0.1, affine=True, track_running_stats=True)
        (final_act): Identity()
      )
      (1): InvertedResidual_Share_Act(
        (conv_pw): Conv2d(136, 816, kernel_size=(1, 1), stride=(1, 1), bias=False)
        (bn1): BatchNorm2d(816, eps=1e-05, momentum=0.1, affine=True, track_running_stats=True)
        (act): Changable_Act(
          (act_fun): Learnable_Relu6_Hard()
        )
        (conv_dw): Conv2d(816, 816, kernel_size=(3, 3), stride=(1, 1), padding=(1, 1), groups=816, bias=False)
        (bn2): BatchNorm2d(816, eps=1e-05, momentum=0.1, affine=True, track_running_stats=True)
        (se): Identity()
        (conv_pwl): Conv2d(816, 136, kernel_size=(1, 1), stride=(1, 1), bias=False)
        (bn3): BatchNorm2d(136, eps=1e-05, momentum=0.1, affine=True, track_running_stats=True)
        (final_act): Identity()
      )
      (2): InvertedResidual_Share_Act(
        (conv_pw): Conv2d(136, 816, kernel_size=(1, 1), stride=(1, 1), bias=False)
        (bn1): BatchNorm2d(816, eps=1e-05, momentum=0.1, affine=True, track_running_stats=True)
        (act): Changable_Act(
          (act_fun): Learnable_Relu6_Hard()
        )
        (conv_dw): Conv2d(816, 816, kernel_size=(3, 3), stride=(1, 1), padding=(1, 1), groups=816, bias=False)
        (bn2): BatchNorm2d(816, eps=1e-05, momentum=0.1, affine=True, track_running_stats=True)
        (se): Identity()
        (conv_pwl): Conv2d(816, 136, kernel_size=(1, 1), stride=(1, 1), bias=False)
        (bn3): BatchNorm2d(136, eps=1e-05, momentum=0.1, affine=True, track_running_stats=True)
        (final_act): Identity()
      )
    )
    (5): Sequential(
      (0): InvertedResidual_Share_Act(
        (conv_pw): Conv2d(136, 816, kernel_size=(1, 1), stride=(1, 1), bias=False)
        (bn1): BatchNorm2d(816, eps=1e-05, momentum=0.1, affine=True, track_running_stats=True)
        (act): Changable_Act(
          (act_fun): Learnable_Relu6_Hard()
        )
        (conv_dw): Conv2d(816, 816, kernel_size=(3, 3), stride=(2, 2), padding=(1, 1), groups=816, bias=False)
        (bn2): BatchNorm2d(816, eps=1e-05, momentum=0.1, affine=True, track_running_stats=True)
        (se): Identity()
        (conv_pwl): Conv2d(816, 224, kernel_size=(1, 1), stride=(1, 1), bias=False)
        (bn3): BatchNorm2d(224, eps=1e-05, momentum=0.1, affine=True, track_running_stats=True)
        (final_act): Identity()
      )
      (1): InvertedResidual_Share_Act(
        (conv_pw): Conv2d(224, 1344, kernel_size=(1, 1), stride=(1, 1), bias=False)
        (bn1): BatchNorm2d(1344, eps=1e-05, momentum=0.1, affine=True, track_running_stats=True)
        (act): Changable_Act(
          (act_fun): Learnable_Relu6_Hard()
        )
        (conv_dw): Conv2d(1344, 1344, kernel_size=(3, 3), stride=(1, 1), padding=(1, 1), groups=1344, bias=False)
        (bn2): BatchNorm2d(1344, eps=1e-05, momentum=0.1, affine=True, track_running_stats=True)
        (se): Identity()
        (conv_pwl): Conv2d(1344, 224, kernel_size=(1, 1), stride=(1, 1), bias=False)
        (bn3): BatchNorm2d(224, eps=1e-05, momentum=0.1, affine=True, track_running_stats=True)
        (final_act): Identity()
      )
      (2): InvertedResidual_Share_Act(
        (conv_pw): Conv2d(224, 1344, kernel_size=(1, 1), stride=(1, 1), bias=False)
        (bn1): BatchNorm2d(1344, eps=1e-05, momentum=0.1, affine=True, track_running_stats=True)
        (act): Changable_Act(
          (act_fun): Learnable_Relu6_Hard()
        )
        (conv_dw): Conv2d(1344, 1344, kernel_size=(3, 3), stride=(1, 1), padding=(1, 1), groups=1344, bias=False)
        (bn2): BatchNorm2d(1344, eps=1e-05, momentum=0.1, affine=True, track_running_stats=True)
        (se): Identity()
        (conv_pwl): Conv2d(1344, 224, kernel_size=(1, 1), stride=(1, 1), bias=False)
        (bn3): BatchNorm2d(224, eps=1e-05, momentum=0.1, affine=True, track_running_stats=True)
        (final_act): Identity()
      )
    )
    (6): Sequential(
      (0): InvertedResidual_Share_Act(
        (conv_pw): Conv2d(224, 1344, kernel_size=(1, 1), stride=(1, 1), bias=False)
        (bn1): BatchNorm2d(1344, eps=1e-05, momentum=0.1, affine=True, track_running_stats=True)
        (act): Changable_Act(
          (act_fun): Learnable_Relu6_Hard()
        )
        (conv_dw): Conv2d(1344, 1344, kernel_size=(3, 3), stride=(1, 1), padding=(1, 1), groups=1344, bias=False)
        (bn2): BatchNorm2d(1344, eps=1e-05, momentum=0.1, affine=True, track_running_stats=True)
        (se): Identity()
        (conv_pwl): Conv2d(1344, 448, kernel_size=(1, 1), stride=(1, 1), bias=False)
        (bn3): BatchNorm2d(448, eps=1e-05, momentum=0.1, affine=True, track_running_stats=True)
        (final_act): Identity()
      )
    )
  )
  (conv_head): Conv2d(448, 1792, kernel_size=(1, 1), stride=(1, 1), bias=False)
  (bn2): BatchNorm2d(1792, eps=1e-05, momentum=0.1, affine=True, track_running_stats=True)
  (act2): Changable_Act(
    (act_fun): Learnable_Relu6_Hard()
  )
  (global_pool): SelectAdaptivePool2d (pool_type=avg, flatten=Flatten(start_dim=1, end_dim=-1))
  (classifier): Linear(in_features=1792, out_features=1000, bias=True)
)
number of params (M): 6.108795
Unsupported operator aten::sub encountered 140 time(s)
Unsupported operator aten::mul encountered 105 time(s)
Unsupported operator aten::add encountered 105 time(s)
Unsupported operator aten::rsub encountered 35 time(s)
Unsupported operator aten::add_ encountered 10 time(s)
number of GFLOPs: 0.60143048
Start training
Train: [0/180][0/10009]	eta 11:39:03 lr 0.100000	data 1.7003 (1.7003)	batch 4.1906 (4.1906)	loss 38.0797 (38.0797)	grad_norm 114.4667 (114.4667)	mem 22427MB
…
Train: [0/180][76/10009]	eta 1:38:46 lr 0.100000	data 0.0007 (0.0246)	batch 0.5717 (0.5966)	loss 69.0880 (38.3938)	grad_norm 66.9291 (55.0330)	mem 26906MB
Train: [0/180][77/10009]	eta 1:38:41 lr 0.100000	data 0.0008 (0.0243)	batch 0.5642 (0.5962)	loss 47.0212 (38.5044)	grad_norm 100.1320 (55.6111)	mem 26906MB
Train: [0/180][78/10009]	eta 1:38:36 lr 0.100000	data 0.0008 (0.0240)	batch 0.5654 (0.5958)	loss 75.8727 (38.9775)	grad_norm 55.5506 (55.6104)	mem 26906MB
Creating model:mobilenetv2_140_block_ds/mobilenetv2_140_block_ds
Successfully load pretrained model: /home/mengli/projects/wenxuanzeng/RePriv/mobilenetv2_140_ra-21a4e913.pth
EfficientNet(
  (conv_stem): Conv2d(3, 48, kernel_size=(3, 3), stride=(2, 2), padding=(1, 1), bias=False)
  (bn1): BatchNorm2d(48, eps=1e-05, momentum=0.1, affine=True, track_running_stats=True)
  (act1): Changable_Act(
    (act_fun): Learnable_Relu6_Hard_SNL()
  )
  (blocks): Sequential(
    (0): Sequential(
      (0): DepthwiseSeparableConv(
        (conv_dw): Conv2d(48, 48, kernel_size=(3, 3), stride=(1, 1), padding=(1, 1), groups=48, bias=False)
        (bn1): BatchNorm2d(48, eps=1e-05, momentum=0.1, affine=True, track_running_stats=True)
        (act1): Changable_Act(
          (act_fun): Learnable_Relu6_Hard_SNL()
        )
        (se): Identity()
        (conv_pw): Conv2d(48, 24, kernel_size=(1, 1), stride=(1, 1), bias=False)
        (bn2): BatchNorm2d(24, eps=1e-05, momentum=0.1, affine=True, track_running_stats=True)
        (act2): Identity()
      )
    )
    (1): Sequential(
      (0): InvertedResidual(
        (conv_pw): Conv2d(24, 144, kernel_size=(1, 1), stride=(1, 1), bias=False)
        (bn1): BatchNorm2d(144, eps=1e-05, momentum=0.1, affine=True, track_running_stats=True)
        (act1): Changable_Act(
          (act_fun): Learnable_Relu6_Hard_SNL()
        )
        (conv_dw): Conv2d(144, 144, kernel_size=(3, 3), stride=(2, 2), padding=(1, 1), groups=144, bias=False)
        (bn2): BatchNorm2d(144, eps=1e-05, momentum=0.1, affine=True, track_running_stats=True)
        (act2): Changable_Act(
          (act_fun): Learnable_Relu6_Hard_SNL()
        )
        (se): Identity()
        (conv_pwl): Conv2d(144, 32, kernel_size=(1, 1), stride=(1, 1), bias=False)
        (bn3): BatchNorm2d(32, eps=1e-05, momentum=0.1, affine=True, track_running_stats=True)
      )
      (1): InvertedResidual(
        (conv_pw): Conv2d(32, 192, kernel_size=(1, 1), stride=(1, 1), bias=False)
        (bn1): BatchNorm2d(192, eps=1e-05, momentum=0.1, affine=True, track_running_stats=True)
        (act1): Changable_Act(
          (act_fun): Learnable_Relu6_Hard_SNL()
        )
        (conv_dw): Conv2d(192, 192, kernel_size=(3, 3), stride=(1, 1), padding=(1, 1), groups=192, bias=False)
        (bn2): BatchNorm2d(192, eps=1e-05, momentum=0.1, affine=True, track_running_stats=True)
        (act2): Changable_Act(
          (act_fun): Learnable_Relu6_Hard_SNL()
        )
        (se): Identity()
        (conv_pwl): Conv2d(192, 32, kernel_size=(1, 1), stride=(1, 1), bias=False)
        (bn3): BatchNorm2d(32, eps=1e-05, momentum=0.1, affine=True, track_running_stats=True)
      )
    )
    (2): Sequential(
      (0): InvertedResidual(
        (conv_pw): Conv2d(32, 192, kernel_size=(1, 1), stride=(1, 1), bias=False)
        (bn1): BatchNorm2d(192, eps=1e-05, momentum=0.1, affine=True, track_running_stats=True)
        (act1): Changable_Act(
          (act_fun): Learnable_Relu6_Hard_SNL()
        )
        (conv_dw): Conv2d(192, 192, kernel_size=(3, 3), stride=(2, 2), padding=(1, 1), groups=192, bias=False)
        (bn2): BatchNorm2d(192, eps=1e-05, momentum=0.1, affine=True, track_running_stats=True)
        (act2): Changable_Act(
          (act_fun): Learnable_Relu6_Hard_SNL()
        )
        (se): Identity()
        (conv_pwl): Conv2d(192, 48, kernel_size=(1, 1), stride=(1, 1), bias=False)
        (bn3): BatchNorm2d(48, eps=1e-05, momentum=0.1, affine=True, track_running_stats=True)
      )
      (1): InvertedResidual(
        (conv_pw): Conv2d(48, 288, kernel_size=(1, 1), stride=(1, 1), bias=False)
        (bn1): BatchNorm2d(288, eps=1e-05, momentum=0.1, affine=True, track_running_stats=True)
        (act1): Changable_Act(
          (act_fun): Learnable_Relu6_Hard_SNL()
        )
        (conv_dw): Conv2d(288, 288, kernel_size=(3, 3), stride=(1, 1), padding=(1, 1), groups=288, bias=False)
        (bn2): BatchNorm2d(288, eps=1e-05, momentum=0.1, affine=True, track_running_stats=True)
        (act2): Changable_Act(
          (act_fun): Learnable_Relu6_Hard_SNL()
        )
        (se): Identity()
        (conv_pwl): Conv2d(288, 48, kernel_size=(1, 1), stride=(1, 1), bias=False)
        (bn3): BatchNorm2d(48, eps=1e-05, momentum=0.1, affine=True, track_running_stats=True)
      )
      (2): InvertedResidual(
        (conv_pw): Conv2d(48, 288, kernel_size=(1, 1), stride=(1, 1), bias=False)
        (bn1): BatchNorm2d(288, eps=1e-05, momentum=0.1, affine=True, track_running_stats=True)
        (act1): Changable_Act(
          (act_fun): Learnable_Relu6_Hard_SNL()
        )
        (conv_dw): Conv2d(288, 288, kernel_size=(3, 3), stride=(1, 1), padding=(1, 1), groups=288, bias=False)
        (bn2): BatchNorm2d(288, eps=1e-05, momentum=0.1, affine=True, track_running_stats=True)
        (act2): Changable_Act(
          (act_fun): Learnable_Relu6_Hard_SNL()
        )
        (se): Identity()
        (conv_pwl): Conv2d(288, 48, kernel_size=(1, 1), stride=(1, 1), bias=False)
        (bn3): BatchNorm2d(48, eps=1e-05, momentum=0.1, affine=True, track_running_stats=True)
      )
    )
    (3): Sequential(
      (0): InvertedResidual(
        (conv_pw): Conv2d(48, 288, kernel_size=(1, 1), stride=(1, 1), bias=False)
        (bn1): BatchNorm2d(288, eps=1e-05, momentum=0.1, affine=True, track_running_stats=True)
        (act1): Changable_Act(
          (act_fun): Learnable_Relu6_Hard_SNL()
        )
        (conv_dw): Conv2d(288, 288, kernel_size=(3, 3), stride=(2, 2), padding=(1, 1), groups=288, bias=False)
        (bn2): BatchNorm2d(288, eps=1e-05, momentum=0.1, affine=True, track_running_stats=True)
        (act2): Changable_Act(
          (act_fun): Learnable_Relu6_Hard_SNL()
        )
        (se): Identity()
        (conv_pwl): Conv2d(288, 88, kernel_size=(1, 1), stride=(1, 1), bias=False)
        (bn3): BatchNorm2d(88, eps=1e-05, momentum=0.1, affine=True, track_running_stats=True)
      )
      (1): InvertedResidual(
        (conv_pw): Conv2d(88, 528, kernel_size=(1, 1), stride=(1, 1), bias=False)
        (bn1): BatchNorm2d(528, eps=1e-05, momentum=0.1, affine=True, track_running_stats=True)
        (act1): Changable_Act(
          (act_fun): Learnable_Relu6_Hard_SNL()
        )
        (conv_dw): Conv2d(528, 528, kernel_size=(3, 3), stride=(1, 1), padding=(1, 1), groups=528, bias=False)
        (bn2): BatchNorm2d(528, eps=1e-05, momentum=0.1, affine=True, track_running_stats=True)
        (act2): Changable_Act(
          (act_fun): Learnable_Relu6_Hard_SNL()
        )
        (se): Identity()
        (conv_pwl): Conv2d(528, 88, kernel_size=(1, 1), stride=(1, 1), bias=False)
        (bn3): BatchNorm2d(88, eps=1e-05, momentum=0.1, affine=True, track_running_stats=True)
      )
      (2): InvertedResidual(
        (conv_pw): Conv2d(88, 528, kernel_size=(1, 1), stride=(1, 1), bias=False)
        (bn1): BatchNorm2d(528, eps=1e-05, momentum=0.1, affine=True, track_running_stats=True)
        (act1): Changable_Act(
          (act_fun): Learnable_Relu6_Hard_SNL()
        )
        (conv_dw): Conv2d(528, 528, kernel_size=(3, 3), stride=(1, 1), padding=(1, 1), groups=528, bias=False)
        (bn2): BatchNorm2d(528, eps=1e-05, momentum=0.1, affine=True, track_running_stats=True)
        (act2): Changable_Act(
          (act_fun): Learnable_Relu6_Hard_SNL()
        )
        (se): Identity()
        (conv_pwl): Conv2d(528, 88, kernel_size=(1, 1), stride=(1, 1), bias=False)
        (bn3): BatchNorm2d(88, eps=1e-05, momentum=0.1, affine=True, track_running_stats=True)
      )
      (3): InvertedResidual(
        (conv_pw): Conv2d(88, 528, kernel_size=(1, 1), stride=(1, 1), bias=False)
        (bn1): BatchNorm2d(528, eps=1e-05, momentum=0.1, affine=True, track_running_stats=True)
        (act1): Changable_Act(
          (act_fun): Learnable_Relu6_Hard_SNL()
        )
        (conv_dw): Conv2d(528, 528, kernel_size=(3, 3), stride=(1, 1), padding=(1, 1), groups=528, bias=False)
        (bn2): BatchNorm2d(528, eps=1e-05, momentum=0.1, affine=True, track_running_stats=True)
        (act2): Changable_Act(
          (act_fun): Learnable_Relu6_Hard_SNL()
        )
        (se): Identity()
        (conv_pwl): Conv2d(528, 88, kernel_size=(1, 1), stride=(1, 1), bias=False)
        (bn3): BatchNorm2d(88, eps=1e-05, momentum=0.1, affine=True, track_running_stats=True)
      )
    )
    (4): Sequential(
      (0): InvertedResidual(
        (conv_pw): Conv2d(88, 528, kernel_size=(1, 1), stride=(1, 1), bias=False)
        (bn1): BatchNorm2d(528, eps=1e-05, momentum=0.1, affine=True, track_running_stats=True)
        (act1): Changable_Act(
          (act_fun): Learnable_Relu6_Hard_SNL()
        )
        (conv_dw): Conv2d(528, 528, kernel_size=(3, 3), stride=(1, 1), padding=(1, 1), groups=528, bias=False)
        (bn2): BatchNorm2d(528, eps=1e-05, momentum=0.1, affine=True, track_running_stats=True)
        (act2): Changable_Act(
          (act_fun): Learnable_Relu6_Hard_SNL()
        )
        (se): Identity()
        (conv_pwl): Conv2d(528, 136, kernel_size=(1, 1), stride=(1, 1), bias=False)
        (bn3): BatchNorm2d(136, eps=1e-05, momentum=0.1, affine=True, track_running_stats=True)
      )
      (1): InvertedResidual(
        (conv_pw): Conv2d(136, 816, kernel_size=(1, 1), stride=(1, 1), bias=False)
        (bn1): BatchNorm2d(816, eps=1e-05, momentum=0.1, affine=True, track_running_stats=True)
        (act1): Changable_Act(
          (act_fun): Learnable_Relu6_Hard_SNL()
        )
        (conv_dw): Conv2d(816, 816, kernel_size=(3, 3), stride=(1, 1), padding=(1, 1), groups=816, bias=False)
        (bn2): BatchNorm2d(816, eps=1e-05, momentum=0.1, affine=True, track_running_stats=True)
        (act2): Changable_Act(
          (act_fun): Learnable_Relu6_Hard_SNL()
        )
        (se): Identity()
        (conv_pwl): Conv2d(816, 136, kernel_size=(1, 1), stride=(1, 1), bias=False)
        (bn3): BatchNorm2d(136, eps=1e-05, momentum=0.1, affine=True, track_running_stats=True)
      )
      (2): InvertedResidual(
        (conv_pw): Conv2d(136, 816, kernel_size=(1, 1), stride=(1, 1), bias=False)
        (bn1): BatchNorm2d(816, eps=1e-05, momentum=0.1, affine=True, track_running_stats=True)
        (act1): Changable_Act(
          (act_fun): Learnable_Relu6_Hard_SNL()
        )
        (conv_dw): Conv2d(816, 816, kernel_size=(3, 3), stride=(1, 1), padding=(1, 1), groups=816, bias=False)
        (bn2): BatchNorm2d(816, eps=1e-05, momentum=0.1, affine=True, track_running_stats=True)
        (act2): Changable_Act(
          (act_fun): Learnable_Relu6_Hard_SNL()
        )
        (se): Identity()
        (conv_pwl): Conv2d(816, 136, kernel_size=(1, 1), stride=(1, 1), bias=False)
        (bn3): BatchNorm2d(136, eps=1e-05, momentum=0.1, affine=True, track_running_stats=True)
      )
    )
    (5): Sequential(
      (0): InvertedResidual(
        (conv_pw): Conv2d(136, 816, kernel_size=(1, 1), stride=(1, 1), bias=False)
        (bn1): BatchNorm2d(816, eps=1e-05, momentum=0.1, affine=True, track_running_stats=True)
        (act1): Changable_Act(
          (act_fun): Learnable_Relu6_Hard_SNL()
        )
        (conv_dw): Conv2d(816, 816, kernel_size=(3, 3), stride=(2, 2), padding=(1, 1), groups=816, bias=False)
        (bn2): BatchNorm2d(816, eps=1e-05, momentum=0.1, affine=True, track_running_stats=True)
        (act2): Changable_Act(
          (act_fun): Learnable_Relu6_Hard_SNL()
        )
        (se): Identity()
        (conv_pwl): Conv2d(816, 224, kernel_size=(1, 1), stride=(1, 1), bias=False)
        (bn3): BatchNorm2d(224, eps=1e-05, momentum=0.1, affine=True, track_running_stats=True)
      )
      (1): InvertedResidual(
        (conv_pw): Conv2d(224, 1344, kernel_size=(1, 1), stride=(1, 1), bias=False)
        (bn1): BatchNorm2d(1344, eps=1e-05, momentum=0.1, affine=True, track_running_stats=True)
        (act1): Changable_Act(
          (act_fun): Learnable_Relu6_Hard_SNL()
        )
        (conv_dw): Conv2d(1344, 1344, kernel_size=(3, 3), stride=(1, 1), padding=(1, 1), groups=1344, bias=False)
        (bn2): BatchNorm2d(1344, eps=1e-05, momentum=0.1, affine=True, track_running_stats=True)
        (act2): Changable_Act(
          (act_fun): Learnable_Relu6_Hard_SNL()
        )
        (se): Identity()
        (conv_pwl): Conv2d(1344, 224, kernel_size=(1, 1), stride=(1, 1), bias=False)
        (bn3): BatchNorm2d(224, eps=1e-05, momentum=0.1, affine=True, track_running_stats=True)
      )
      (2): InvertedResidual(
        (conv_pw): Conv2d(224, 1344, kernel_size=(1, 1), stride=(1, 1), bias=False)
        (bn1): BatchNorm2d(1344, eps=1e-05, momentum=0.1, affine=True, track_running_stats=True)
        (act1): Changable_Act(
          (act_fun): Learnable_Relu6_Hard_SNL()
        )
        (conv_dw): Conv2d(1344, 1344, kernel_size=(3, 3), stride=(1, 1), padding=(1, 1), groups=1344, bias=False)
        (bn2): BatchNorm2d(1344, eps=1e-05, momentum=0.1, affine=True, track_running_stats=True)
        (act2): Changable_Act(
          (act_fun): Learnable_Relu6_Hard_SNL()
        )
        (se): Identity()
        (conv_pwl): Conv2d(1344, 224, kernel_size=(1, 1), stride=(1, 1), bias=False)
        (bn3): BatchNorm2d(224, eps=1e-05, momentum=0.1, affine=True, track_running_stats=True)
      )
    )
    (6): Sequential(
      (0): InvertedResidual(
        (conv_pw): Conv2d(224, 1344, kernel_size=(1, 1), stride=(1, 1), bias=False)
        (bn1): BatchNorm2d(1344, eps=1e-05, momentum=0.1, affine=True, track_running_stats=True)
        (act1): Changable_Act(
          (act_fun): Learnable_Relu6_Hard_SNL()
        )
        (conv_dw): Conv2d(1344, 1344, kernel_size=(3, 3), stride=(1, 1), padding=(1, 1), groups=1344, bias=False)
        (bn2): BatchNorm2d(1344, eps=1e-05, momentum=0.1, affine=True, track_running_stats=True)
        (act2): Changable_Act(
          (act_fun): Learnable_Relu6_Hard_SNL()
        )
        (se): Identity()
        (conv_pwl): Conv2d(1344, 448, kernel_size=(1, 1), stride=(1, 1), bias=False)
        (bn3): BatchNorm2d(448, eps=1e-05, momentum=0.1, affine=True, track_running_stats=True)
      )
    )
  )
  (conv_head): Conv2d(448, 1792, kernel_size=(1, 1), stride=(1, 1), bias=False)
  (bn2): BatchNorm2d(1792, eps=1e-05, momentum=0.1, affine=True, track_running_stats=True)
  (act2): Changable_Act(
    (act_fun): Learnable_Relu6_Hard_SNL()
  )
  (global_pool): SelectAdaptivePool2d (pool_type=avg, flatten=Flatten(start_dim=1, end_dim=-1))
  (classifier): Linear(in_features=1792, out_features=1000, bias=True)
)
Successfully build teacher model
number of params (M): 6.108776
Unsupported operator aten::sub encountered 175 time(s)
Unsupported operator aten::mul encountered 210 time(s)
Unsupported operator aten::add encountered 210 time(s)
Unsupported operator aten::rsub encountered 105 time(s)
Unsupported operator aten::add_ encountered 10 time(s)
number of GFLOPs: 0.60143048
Start training
Creating model:mobilenetv2_140_block_ds/mobilenetv2_140_block_ds
Successfully load pretrained model: /home/mengli/projects/wenxuanzeng/RePriv/mobilenetv2_140_ra-21a4e913.pth
EfficientNet(
  (conv_stem): Conv2d(3, 48, kernel_size=(3, 3), stride=(2, 2), padding=(1, 1), bias=False)
  (bn1): BatchNorm2d(48, eps=1e-05, momentum=0.1, affine=True, track_running_stats=True)
  (act1): Changable_Act(
    (act_fun): Learnable_Relu6_Hard_SNL()
  )
  (blocks): Sequential(
    (0): Sequential(
      (0): DepthwiseSeparableConv(
        (conv_dw): Conv2d(48, 48, kernel_size=(3, 3), stride=(1, 1), padding=(1, 1), groups=48, bias=False)
        (bn1): BatchNorm2d(48, eps=1e-05, momentum=0.1, affine=True, track_running_stats=True)
        (act1): Changable_Act(
          (act_fun): Learnable_Relu6_Hard_SNL()
        )
        (se): Identity()
        (conv_pw): Conv2d(48, 24, kernel_size=(1, 1), stride=(1, 1), bias=False)
        (bn2): BatchNorm2d(24, eps=1e-05, momentum=0.1, affine=True, track_running_stats=True)
        (act2): Identity()
      )
    )
    (1): Sequential(
      (0): InvertedResidual(
        (conv_pw): Conv2d(24, 144, kernel_size=(1, 1), stride=(1, 1), bias=False)
        (bn1): BatchNorm2d(144, eps=1e-05, momentum=0.1, affine=True, track_running_stats=True)
        (act1): Changable_Act(
          (act_fun): Learnable_Relu6_Hard_SNL()
        )
        (conv_dw): Conv2d(144, 144, kernel_size=(3, 3), stride=(2, 2), padding=(1, 1), groups=144, bias=False)
        (bn2): BatchNorm2d(144, eps=1e-05, momentum=0.1, affine=True, track_running_stats=True)
        (act2): Changable_Act(
          (act_fun): Learnable_Relu6_Hard_SNL()
        )
        (se): Identity()
        (conv_pwl): Conv2d(144, 32, kernel_size=(1, 1), stride=(1, 1), bias=False)
        (bn3): BatchNorm2d(32, eps=1e-05, momentum=0.1, affine=True, track_running_stats=True)
      )
      (1): InvertedResidual(
        (conv_pw): Conv2d(32, 192, kernel_size=(1, 1), stride=(1, 1), bias=False)
        (bn1): BatchNorm2d(192, eps=1e-05, momentum=0.1, affine=True, track_running_stats=True)
        (act1): Changable_Act(
          (act_fun): Learnable_Relu6_Hard_SNL()
        )
        (conv_dw): Conv2d(192, 192, kernel_size=(3, 3), stride=(1, 1), padding=(1, 1), groups=192, bias=False)
        (bn2): BatchNorm2d(192, eps=1e-05, momentum=0.1, affine=True, track_running_stats=True)
        (act2): Changable_Act(
          (act_fun): Learnable_Relu6_Hard_SNL()
        )
        (se): Identity()
        (conv_pwl): Conv2d(192, 32, kernel_size=(1, 1), stride=(1, 1), bias=False)
        (bn3): BatchNorm2d(32, eps=1e-05, momentum=0.1, affine=True, track_running_stats=True)
      )
    )
    (2): Sequential(
      (0): InvertedResidual(
        (conv_pw): Conv2d(32, 192, kernel_size=(1, 1), stride=(1, 1), bias=False)
        (bn1): BatchNorm2d(192, eps=1e-05, momentum=0.1, affine=True, track_running_stats=True)
        (act1): Changable_Act(
          (act_fun): Learnable_Relu6_Hard_SNL()
        )
        (conv_dw): Conv2d(192, 192, kernel_size=(3, 3), stride=(2, 2), padding=(1, 1), groups=192, bias=False)
        (bn2): BatchNorm2d(192, eps=1e-05, momentum=0.1, affine=True, track_running_stats=True)
        (act2): Changable_Act(
          (act_fun): Learnable_Relu6_Hard_SNL()
        )
        (se): Identity()
        (conv_pwl): Conv2d(192, 48, kernel_size=(1, 1), stride=(1, 1), bias=False)
        (bn3): BatchNorm2d(48, eps=1e-05, momentum=0.1, affine=True, track_running_stats=True)
      )
      (1): InvertedResidual(
        (conv_pw): Conv2d(48, 288, kernel_size=(1, 1), stride=(1, 1), bias=False)
        (bn1): BatchNorm2d(288, eps=1e-05, momentum=0.1, affine=True, track_running_stats=True)
        (act1): Changable_Act(
          (act_fun): Learnable_Relu6_Hard_SNL()
        )
        (conv_dw): Conv2d(288, 288, kernel_size=(3, 3), stride=(1, 1), padding=(1, 1), groups=288, bias=False)
        (bn2): BatchNorm2d(288, eps=1e-05, momentum=0.1, affine=True, track_running_stats=True)
        (act2): Changable_Act(
          (act_fun): Learnable_Relu6_Hard_SNL()
        )
        (se): Identity()
        (conv_pwl): Conv2d(288, 48, kernel_size=(1, 1), stride=(1, 1), bias=False)
        (bn3): BatchNorm2d(48, eps=1e-05, momentum=0.1, affine=True, track_running_stats=True)
      )
      (2): InvertedResidual(
        (conv_pw): Conv2d(48, 288, kernel_size=(1, 1), stride=(1, 1), bias=False)
        (bn1): BatchNorm2d(288, eps=1e-05, momentum=0.1, affine=True, track_running_stats=True)
        (act1): Changable_Act(
          (act_fun): Learnable_Relu6_Hard_SNL()
        )
        (conv_dw): Conv2d(288, 288, kernel_size=(3, 3), stride=(1, 1), padding=(1, 1), groups=288, bias=False)
        (bn2): BatchNorm2d(288, eps=1e-05, momentum=0.1, affine=True, track_running_stats=True)
        (act2): Changable_Act(
          (act_fun): Learnable_Relu6_Hard_SNL()
        )
        (se): Identity()
        (conv_pwl): Conv2d(288, 48, kernel_size=(1, 1), stride=(1, 1), bias=False)
        (bn3): BatchNorm2d(48, eps=1e-05, momentum=0.1, affine=True, track_running_stats=True)
      )
    )
    (3): Sequential(
      (0): InvertedResidual(
        (conv_pw): Conv2d(48, 288, kernel_size=(1, 1), stride=(1, 1), bias=False)
        (bn1): BatchNorm2d(288, eps=1e-05, momentum=0.1, affine=True, track_running_stats=True)
        (act1): Changable_Act(
          (act_fun): Learnable_Relu6_Hard_SNL()
        )
        (conv_dw): Conv2d(288, 288, kernel_size=(3, 3), stride=(2, 2), padding=(1, 1), groups=288, bias=False)
        (bn2): BatchNorm2d(288, eps=1e-05, momentum=0.1, affine=True, track_running_stats=True)
        (act2): Changable_Act(
          (act_fun): Learnable_Relu6_Hard_SNL()
        )
        (se): Identity()
        (conv_pwl): Conv2d(288, 88, kernel_size=(1, 1), stride=(1, 1), bias=False)
        (bn3): BatchNorm2d(88, eps=1e-05, momentum=0.1, affine=True, track_running_stats=True)
      )
      (1): InvertedResidual(
        (conv_pw): Conv2d(88, 528, kernel_size=(1, 1), stride=(1, 1), bias=False)
        (bn1): BatchNorm2d(528, eps=1e-05, momentum=0.1, affine=True, track_running_stats=True)
        (act1): Changable_Act(
          (act_fun): Learnable_Relu6_Hard_SNL()
        )
        (conv_dw): Conv2d(528, 528, kernel_size=(3, 3), stride=(1, 1), padding=(1, 1), groups=528, bias=False)
        (bn2): BatchNorm2d(528, eps=1e-05, momentum=0.1, affine=True, track_running_stats=True)
        (act2): Changable_Act(
          (act_fun): Learnable_Relu6_Hard_SNL()
        )
        (se): Identity()
        (conv_pwl): Conv2d(528, 88, kernel_size=(1, 1), stride=(1, 1), bias=False)
        (bn3): BatchNorm2d(88, eps=1e-05, momentum=0.1, affine=True, track_running_stats=True)
      )
      (2): InvertedResidual(
        (conv_pw): Conv2d(88, 528, kernel_size=(1, 1), stride=(1, 1), bias=False)
        (bn1): BatchNorm2d(528, eps=1e-05, momentum=0.1, affine=True, track_running_stats=True)
        (act1): Changable_Act(
          (act_fun): Learnable_Relu6_Hard_SNL()
        )
        (conv_dw): Conv2d(528, 528, kernel_size=(3, 3), stride=(1, 1), padding=(1, 1), groups=528, bias=False)
        (bn2): BatchNorm2d(528, eps=1e-05, momentum=0.1, affine=True, track_running_stats=True)
        (act2): Changable_Act(
          (act_fun): Learnable_Relu6_Hard_SNL()
        )
        (se): Identity()
        (conv_pwl): Conv2d(528, 88, kernel_size=(1, 1), stride=(1, 1), bias=False)
        (bn3): BatchNorm2d(88, eps=1e-05, momentum=0.1, affine=True, track_running_stats=True)
      )
      (3): InvertedResidual(
        (conv_pw): Conv2d(88, 528, kernel_size=(1, 1), stride=(1, 1), bias=False)
        (bn1): BatchNorm2d(528, eps=1e-05, momentum=0.1, affine=True, track_running_stats=True)
        (act1): Changable_Act(
          (act_fun): Learnable_Relu6_Hard_SNL()
        )
        (conv_dw): Conv2d(528, 528, kernel_size=(3, 3), stride=(1, 1), padding=(1, 1), groups=528, bias=False)
        (bn2): BatchNorm2d(528, eps=1e-05, momentum=0.1, affine=True, track_running_stats=True)
        (act2): Changable_Act(
          (act_fun): Learnable_Relu6_Hard_SNL()
        )
        (se): Identity()
        (conv_pwl): Conv2d(528, 88, kernel_size=(1, 1), stride=(1, 1), bias=False)
        (bn3): BatchNorm2d(88, eps=1e-05, momentum=0.1, affine=True, track_running_stats=True)
      )
    )
    (4): Sequential(
      (0): InvertedResidual(
        (conv_pw): Conv2d(88, 528, kernel_size=(1, 1), stride=(1, 1), bias=False)
        (bn1): BatchNorm2d(528, eps=1e-05, momentum=0.1, affine=True, track_running_stats=True)
        (act1): Changable_Act(
          (act_fun): Learnable_Relu6_Hard_SNL()
        )
        (conv_dw): Conv2d(528, 528, kernel_size=(3, 3), stride=(1, 1), padding=(1, 1), groups=528, bias=False)
        (bn2): BatchNorm2d(528, eps=1e-05, momentum=0.1, affine=True, track_running_stats=True)
        (act2): Changable_Act(
          (act_fun): Learnable_Relu6_Hard_SNL()
        )
        (se): Identity()
        (conv_pwl): Conv2d(528, 136, kernel_size=(1, 1), stride=(1, 1), bias=False)
        (bn3): BatchNorm2d(136, eps=1e-05, momentum=0.1, affine=True, track_running_stats=True)
      )
      (1): InvertedResidual(
        (conv_pw): Conv2d(136, 816, kernel_size=(1, 1), stride=(1, 1), bias=False)
        (bn1): BatchNorm2d(816, eps=1e-05, momentum=0.1, affine=True, track_running_stats=True)
        (act1): Changable_Act(
          (act_fun): Learnable_Relu6_Hard_SNL()
        )
        (conv_dw): Conv2d(816, 816, kernel_size=(3, 3), stride=(1, 1), padding=(1, 1), groups=816, bias=False)
        (bn2): BatchNorm2d(816, eps=1e-05, momentum=0.1, affine=True, track_running_stats=True)
        (act2): Changable_Act(
          (act_fun): Learnable_Relu6_Hard_SNL()
        )
        (se): Identity()
        (conv_pwl): Conv2d(816, 136, kernel_size=(1, 1), stride=(1, 1), bias=False)
        (bn3): BatchNorm2d(136, eps=1e-05, momentum=0.1, affine=True, track_running_stats=True)
      )
      (2): InvertedResidual(
        (conv_pw): Conv2d(136, 816, kernel_size=(1, 1), stride=(1, 1), bias=False)
        (bn1): BatchNorm2d(816, eps=1e-05, momentum=0.1, affine=True, track_running_stats=True)
        (act1): Changable_Act(
          (act_fun): Learnable_Relu6_Hard_SNL()
        )
        (conv_dw): Conv2d(816, 816, kernel_size=(3, 3), stride=(1, 1), padding=(1, 1), groups=816, bias=False)
        (bn2): BatchNorm2d(816, eps=1e-05, momentum=0.1, affine=True, track_running_stats=True)
        (act2): Changable_Act(
          (act_fun): Learnable_Relu6_Hard_SNL()
        )
        (se): Identity()
        (conv_pwl): Conv2d(816, 136, kernel_size=(1, 1), stride=(1, 1), bias=False)
        (bn3): BatchNorm2d(136, eps=1e-05, momentum=0.1, affine=True, track_running_stats=True)
      )
    )
    (5): Sequential(
      (0): InvertedResidual(
        (conv_pw): Conv2d(136, 816, kernel_size=(1, 1), stride=(1, 1), bias=False)
        (bn1): BatchNorm2d(816, eps=1e-05, momentum=0.1, affine=True, track_running_stats=True)
        (act1): Changable_Act(
          (act_fun): Learnable_Relu6_Hard_SNL()
        )
        (conv_dw): Conv2d(816, 816, kernel_size=(3, 3), stride=(2, 2), padding=(1, 1), groups=816, bias=False)
        (bn2): BatchNorm2d(816, eps=1e-05, momentum=0.1, affine=True, track_running_stats=True)
        (act2): Changable_Act(
          (act_fun): Learnable_Relu6_Hard_SNL()
        )
        (se): Identity()
        (conv_pwl): Conv2d(816, 224, kernel_size=(1, 1), stride=(1, 1), bias=False)
        (bn3): BatchNorm2d(224, eps=1e-05, momentum=0.1, affine=True, track_running_stats=True)
      )
      (1): InvertedResidual(
        (conv_pw): Conv2d(224, 1344, kernel_size=(1, 1), stride=(1, 1), bias=False)
        (bn1): BatchNorm2d(1344, eps=1e-05, momentum=0.1, affine=True, track_running_stats=True)
        (act1): Changable_Act(
          (act_fun): Learnable_Relu6_Hard_SNL()
        )
        (conv_dw): Conv2d(1344, 1344, kernel_size=(3, 3), stride=(1, 1), padding=(1, 1), groups=1344, bias=False)
        (bn2): BatchNorm2d(1344, eps=1e-05, momentum=0.1, affine=True, track_running_stats=True)
        (act2): Changable_Act(
          (act_fun): Learnable_Relu6_Hard_SNL()
        )
        (se): Identity()
        (conv_pwl): Conv2d(1344, 224, kernel_size=(1, 1), stride=(1, 1), bias=False)
        (bn3): BatchNorm2d(224, eps=1e-05, momentum=0.1, affine=True, track_running_stats=True)
      )
      (2): InvertedResidual(
        (conv_pw): Conv2d(224, 1344, kernel_size=(1, 1), stride=(1, 1), bias=False)
        (bn1): BatchNorm2d(1344, eps=1e-05, momentum=0.1, affine=True, track_running_stats=True)
        (act1): Changable_Act(
          (act_fun): Learnable_Relu6_Hard_SNL()
        )
        (conv_dw): Conv2d(1344, 1344, kernel_size=(3, 3), stride=(1, 1), padding=(1, 1), groups=1344, bias=False)
        (bn2): BatchNorm2d(1344, eps=1e-05, momentum=0.1, affine=True, track_running_stats=True)
        (act2): Changable_Act(
          (act_fun): Learnable_Relu6_Hard_SNL()
        )
        (se): Identity()
        (conv_pwl): Conv2d(1344, 224, kernel_size=(1, 1), stride=(1, 1), bias=False)
        (bn3): BatchNorm2d(224, eps=1e-05, momentum=0.1, affine=True, track_running_stats=True)
      )
    )
    (6): Sequential(
      (0): InvertedResidual(
        (conv_pw): Conv2d(224, 1344, kernel_size=(1, 1), stride=(1, 1), bias=False)
        (bn1): BatchNorm2d(1344, eps=1e-05, momentum=0.1, affine=True, track_running_stats=True)
        (act1): Changable_Act(
          (act_fun): Learnable_Relu6_Hard_SNL()
        )
        (conv_dw): Conv2d(1344, 1344, kernel_size=(3, 3), stride=(1, 1), padding=(1, 1), groups=1344, bias=False)
        (bn2): BatchNorm2d(1344, eps=1e-05, momentum=0.1, affine=True, track_running_stats=True)
        (act2): Changable_Act(
          (act_fun): Learnable_Relu6_Hard_SNL()
        )
        (se): Identity()
        (conv_pwl): Conv2d(1344, 448, kernel_size=(1, 1), stride=(1, 1), bias=False)
        (bn3): BatchNorm2d(448, eps=1e-05, momentum=0.1, affine=True, track_running_stats=True)
      )
    )
  )
  (conv_head): Conv2d(448, 1792, kernel_size=(1, 1), stride=(1, 1), bias=False)
  (bn2): BatchNorm2d(1792, eps=1e-05, momentum=0.1, affine=True, track_running_stats=True)
  (act2): Changable_Act(
    (act_fun): Learnable_Relu6_Hard_SNL()
  )
  (global_pool): SelectAdaptivePool2d (pool_type=avg, flatten=Flatten(start_dim=1, end_dim=-1))
  (classifier): Linear(in_features=1792, out_features=1000, bias=True)
)
Successfully build teacher model
number of params (M): 6.108776
Unsupported operator aten::sub encountered 175 time(s)
Unsupported operator aten::mul encountered 210 time(s)
Unsupported operator aten::add encountered 210 time(s)
Unsupported operator aten::rsub encountered 105 time(s)
Unsupported operator aten::add_ encountered 10 time(s)
number of GFLOPs: 0.60143048
Start training
Creating model:mobilenetv2_140_block_ds/mobilenetv2_140_block_ds
Successfully load pretrained model: /home/mengli/projects/wenxuanzeng/RePriv/mobilenetv2_140_ra-21a4e913.pth
EfficientNet(
  (conv_stem): Conv2d(3, 48, kernel_size=(3, 3), stride=(2, 2), padding=(1, 1), bias=False)
  (bn1): BatchNorm2d(48, eps=1e-05, momentum=0.1, affine=True, track_running_stats=True)
  (act1): Changable_Act(
    (act_fun): Learnable_Relu6_Hard_SNL()
  )
  (blocks): Sequential(
    (0): Sequential(
      (0): DepthwiseSeparableConv(
        (conv_dw): Conv2d(48, 48, kernel_size=(3, 3), stride=(1, 1), padding=(1, 1), groups=48, bias=False)
        (bn1): BatchNorm2d(48, eps=1e-05, momentum=0.1, affine=True, track_running_stats=True)
        (act1): Changable_Act(
          (act_fun): Learnable_Relu6_Hard_SNL()
        )
        (se): Identity()
        (conv_pw): Conv2d(48, 24, kernel_size=(1, 1), stride=(1, 1), bias=False)
        (bn2): BatchNorm2d(24, eps=1e-05, momentum=0.1, affine=True, track_running_stats=True)
        (act2): Identity()
      )
    )
    (1): Sequential(
      (0): InvertedResidual(
        (conv_pw): Conv2d(24, 144, kernel_size=(1, 1), stride=(1, 1), bias=False)
        (bn1): BatchNorm2d(144, eps=1e-05, momentum=0.1, affine=True, track_running_stats=True)
        (act1): Changable_Act(
          (act_fun): Learnable_Relu6_Hard_SNL()
        )
        (conv_dw): Conv2d(144, 144, kernel_size=(3, 3), stride=(2, 2), padding=(1, 1), groups=144, bias=False)
        (bn2): BatchNorm2d(144, eps=1e-05, momentum=0.1, affine=True, track_running_stats=True)
        (act2): Changable_Act(
          (act_fun): Learnable_Relu6_Hard_SNL()
        )
        (se): Identity()
        (conv_pwl): Conv2d(144, 32, kernel_size=(1, 1), stride=(1, 1), bias=False)
        (bn3): BatchNorm2d(32, eps=1e-05, momentum=0.1, affine=True, track_running_stats=True)
      )
      (1): InvertedResidual(
        (conv_pw): Conv2d(32, 192, kernel_size=(1, 1), stride=(1, 1), bias=False)
        (bn1): BatchNorm2d(192, eps=1e-05, momentum=0.1, affine=True, track_running_stats=True)
        (act1): Changable_Act(
          (act_fun): Learnable_Relu6_Hard_SNL()
        )
        (conv_dw): Conv2d(192, 192, kernel_size=(3, 3), stride=(1, 1), padding=(1, 1), groups=192, bias=False)
        (bn2): BatchNorm2d(192, eps=1e-05, momentum=0.1, affine=True, track_running_stats=True)
        (act2): Changable_Act(
          (act_fun): Learnable_Relu6_Hard_SNL()
        )
        (se): Identity()
        (conv_pwl): Conv2d(192, 32, kernel_size=(1, 1), stride=(1, 1), bias=False)
        (bn3): BatchNorm2d(32, eps=1e-05, momentum=0.1, affine=True, track_running_stats=True)
      )
    )
    (2): Sequential(
      (0): InvertedResidual(
        (conv_pw): Conv2d(32, 192, kernel_size=(1, 1), stride=(1, 1), bias=False)
        (bn1): BatchNorm2d(192, eps=1e-05, momentum=0.1, affine=True, track_running_stats=True)
        (act1): Changable_Act(
          (act_fun): Learnable_Relu6_Hard_SNL()
        )
        (conv_dw): Conv2d(192, 192, kernel_size=(3, 3), stride=(2, 2), padding=(1, 1), groups=192, bias=False)
        (bn2): BatchNorm2d(192, eps=1e-05, momentum=0.1, affine=True, track_running_stats=True)
        (act2): Changable_Act(
          (act_fun): Learnable_Relu6_Hard_SNL()
        )
        (se): Identity()
        (conv_pwl): Conv2d(192, 48, kernel_size=(1, 1), stride=(1, 1), bias=False)
        (bn3): BatchNorm2d(48, eps=1e-05, momentum=0.1, affine=True, track_running_stats=True)
      )
      (1): InvertedResidual(
        (conv_pw): Conv2d(48, 288, kernel_size=(1, 1), stride=(1, 1), bias=False)
        (bn1): BatchNorm2d(288, eps=1e-05, momentum=0.1, affine=True, track_running_stats=True)
        (act1): Changable_Act(
          (act_fun): Learnable_Relu6_Hard_SNL()
        )
        (conv_dw): Conv2d(288, 288, kernel_size=(3, 3), stride=(1, 1), padding=(1, 1), groups=288, bias=False)
        (bn2): BatchNorm2d(288, eps=1e-05, momentum=0.1, affine=True, track_running_stats=True)
        (act2): Changable_Act(
          (act_fun): Learnable_Relu6_Hard_SNL()
        )
        (se): Identity()
        (conv_pwl): Conv2d(288, 48, kernel_size=(1, 1), stride=(1, 1), bias=False)
        (bn3): BatchNorm2d(48, eps=1e-05, momentum=0.1, affine=True, track_running_stats=True)
      )
      (2): InvertedResidual(
        (conv_pw): Conv2d(48, 288, kernel_size=(1, 1), stride=(1, 1), bias=False)
        (bn1): BatchNorm2d(288, eps=1e-05, momentum=0.1, affine=True, track_running_stats=True)
        (act1): Changable_Act(
          (act_fun): Learnable_Relu6_Hard_SNL()
        )
        (conv_dw): Conv2d(288, 288, kernel_size=(3, 3), stride=(1, 1), padding=(1, 1), groups=288, bias=False)
        (bn2): BatchNorm2d(288, eps=1e-05, momentum=0.1, affine=True, track_running_stats=True)
        (act2): Changable_Act(
          (act_fun): Learnable_Relu6_Hard_SNL()
        )
        (se): Identity()
        (conv_pwl): Conv2d(288, 48, kernel_size=(1, 1), stride=(1, 1), bias=False)
        (bn3): BatchNorm2d(48, eps=1e-05, momentum=0.1, affine=True, track_running_stats=True)
      )
    )
    (3): Sequential(
      (0): InvertedResidual(
        (conv_pw): Conv2d(48, 288, kernel_size=(1, 1), stride=(1, 1), bias=False)
        (bn1): BatchNorm2d(288, eps=1e-05, momentum=0.1, affine=True, track_running_stats=True)
        (act1): Changable_Act(
          (act_fun): Learnable_Relu6_Hard_SNL()
        )
        (conv_dw): Conv2d(288, 288, kernel_size=(3, 3), stride=(2, 2), padding=(1, 1), groups=288, bias=False)
        (bn2): BatchNorm2d(288, eps=1e-05, momentum=0.1, affine=True, track_running_stats=True)
        (act2): Changable_Act(
          (act_fun): Learnable_Relu6_Hard_SNL()
        )
        (se): Identity()
        (conv_pwl): Conv2d(288, 88, kernel_size=(1, 1), stride=(1, 1), bias=False)
        (bn3): BatchNorm2d(88, eps=1e-05, momentum=0.1, affine=True, track_running_stats=True)
      )
      (1): InvertedResidual(
        (conv_pw): Conv2d(88, 528, kernel_size=(1, 1), stride=(1, 1), bias=False)
        (bn1): BatchNorm2d(528, eps=1e-05, momentum=0.1, affine=True, track_running_stats=True)
        (act1): Changable_Act(
          (act_fun): Learnable_Relu6_Hard_SNL()
        )
        (conv_dw): Conv2d(528, 528, kernel_size=(3, 3), stride=(1, 1), padding=(1, 1), groups=528, bias=False)
        (bn2): BatchNorm2d(528, eps=1e-05, momentum=0.1, affine=True, track_running_stats=True)
        (act2): Changable_Act(
          (act_fun): Learnable_Relu6_Hard_SNL()
        )
        (se): Identity()
        (conv_pwl): Conv2d(528, 88, kernel_size=(1, 1), stride=(1, 1), bias=False)
        (bn3): BatchNorm2d(88, eps=1e-05, momentum=0.1, affine=True, track_running_stats=True)
      )
      (2): InvertedResidual(
        (conv_pw): Conv2d(88, 528, kernel_size=(1, 1), stride=(1, 1), bias=False)
        (bn1): BatchNorm2d(528, eps=1e-05, momentum=0.1, affine=True, track_running_stats=True)
        (act1): Changable_Act(
          (act_fun): Learnable_Relu6_Hard_SNL()
        )
        (conv_dw): Conv2d(528, 528, kernel_size=(3, 3), stride=(1, 1), padding=(1, 1), groups=528, bias=False)
        (bn2): BatchNorm2d(528, eps=1e-05, momentum=0.1, affine=True, track_running_stats=True)
        (act2): Changable_Act(
          (act_fun): Learnable_Relu6_Hard_SNL()
        )
        (se): Identity()
        (conv_pwl): Conv2d(528, 88, kernel_size=(1, 1), stride=(1, 1), bias=False)
        (bn3): BatchNorm2d(88, eps=1e-05, momentum=0.1, affine=True, track_running_stats=True)
      )
      (3): InvertedResidual(
        (conv_pw): Conv2d(88, 528, kernel_size=(1, 1), stride=(1, 1), bias=False)
        (bn1): BatchNorm2d(528, eps=1e-05, momentum=0.1, affine=True, track_running_stats=True)
        (act1): Changable_Act(
          (act_fun): Learnable_Relu6_Hard_SNL()
        )
        (conv_dw): Conv2d(528, 528, kernel_size=(3, 3), stride=(1, 1), padding=(1, 1), groups=528, bias=False)
        (bn2): BatchNorm2d(528, eps=1e-05, momentum=0.1, affine=True, track_running_stats=True)
        (act2): Changable_Act(
          (act_fun): Learnable_Relu6_Hard_SNL()
        )
        (se): Identity()
        (conv_pwl): Conv2d(528, 88, kernel_size=(1, 1), stride=(1, 1), bias=False)
        (bn3): BatchNorm2d(88, eps=1e-05, momentum=0.1, affine=True, track_running_stats=True)
      )
    )
    (4): Sequential(
      (0): InvertedResidual(
        (conv_pw): Conv2d(88, 528, kernel_size=(1, 1), stride=(1, 1), bias=False)
        (bn1): BatchNorm2d(528, eps=1e-05, momentum=0.1, affine=True, track_running_stats=True)
        (act1): Changable_Act(
          (act_fun): Learnable_Relu6_Hard_SNL()
        )
        (conv_dw): Conv2d(528, 528, kernel_size=(3, 3), stride=(1, 1), padding=(1, 1), groups=528, bias=False)
        (bn2): BatchNorm2d(528, eps=1e-05, momentum=0.1, affine=True, track_running_stats=True)
        (act2): Changable_Act(
          (act_fun): Learnable_Relu6_Hard_SNL()
        )
        (se): Identity()
        (conv_pwl): Conv2d(528, 136, kernel_size=(1, 1), stride=(1, 1), bias=False)
        (bn3): BatchNorm2d(136, eps=1e-05, momentum=0.1, affine=True, track_running_stats=True)
      )
      (1): InvertedResidual(
        (conv_pw): Conv2d(136, 816, kernel_size=(1, 1), stride=(1, 1), bias=False)
        (bn1): BatchNorm2d(816, eps=1e-05, momentum=0.1, affine=True, track_running_stats=True)
        (act1): Changable_Act(
          (act_fun): Learnable_Relu6_Hard_SNL()
        )
        (conv_dw): Conv2d(816, 816, kernel_size=(3, 3), stride=(1, 1), padding=(1, 1), groups=816, bias=False)
        (bn2): BatchNorm2d(816, eps=1e-05, momentum=0.1, affine=True, track_running_stats=True)
        (act2): Changable_Act(
          (act_fun): Learnable_Relu6_Hard_SNL()
        )
        (se): Identity()
        (conv_pwl): Conv2d(816, 136, kernel_size=(1, 1), stride=(1, 1), bias=False)
        (bn3): BatchNorm2d(136, eps=1e-05, momentum=0.1, affine=True, track_running_stats=True)
      )
      (2): InvertedResidual(
        (conv_pw): Conv2d(136, 816, kernel_size=(1, 1), stride=(1, 1), bias=False)
        (bn1): BatchNorm2d(816, eps=1e-05, momentum=0.1, affine=True, track_running_stats=True)
        (act1): Changable_Act(
          (act_fun): Learnable_Relu6_Hard_SNL()
        )
        (conv_dw): Conv2d(816, 816, kernel_size=(3, 3), stride=(1, 1), padding=(1, 1), groups=816, bias=False)
        (bn2): BatchNorm2d(816, eps=1e-05, momentum=0.1, affine=True, track_running_stats=True)
        (act2): Changable_Act(
          (act_fun): Learnable_Relu6_Hard_SNL()
        )
        (se): Identity()
        (conv_pwl): Conv2d(816, 136, kernel_size=(1, 1), stride=(1, 1), bias=False)
        (bn3): BatchNorm2d(136, eps=1e-05, momentum=0.1, affine=True, track_running_stats=True)
      )
    )
    (5): Sequential(
      (0): InvertedResidual(
        (conv_pw): Conv2d(136, 816, kernel_size=(1, 1), stride=(1, 1), bias=False)
        (bn1): BatchNorm2d(816, eps=1e-05, momentum=0.1, affine=True, track_running_stats=True)
        (act1): Changable_Act(
          (act_fun): Learnable_Relu6_Hard_SNL()
        )
        (conv_dw): Conv2d(816, 816, kernel_size=(3, 3), stride=(2, 2), padding=(1, 1), groups=816, bias=False)
        (bn2): BatchNorm2d(816, eps=1e-05, momentum=0.1, affine=True, track_running_stats=True)
        (act2): Changable_Act(
          (act_fun): Learnable_Relu6_Hard_SNL()
        )
        (se): Identity()
        (conv_pwl): Conv2d(816, 224, kernel_size=(1, 1), stride=(1, 1), bias=False)
        (bn3): BatchNorm2d(224, eps=1e-05, momentum=0.1, affine=True, track_running_stats=True)
      )
      (1): InvertedResidual(
        (conv_pw): Conv2d(224, 1344, kernel_size=(1, 1), stride=(1, 1), bias=False)
        (bn1): BatchNorm2d(1344, eps=1e-05, momentum=0.1, affine=True, track_running_stats=True)
        (act1): Changable_Act(
          (act_fun): Learnable_Relu6_Hard_SNL()
        )
        (conv_dw): Conv2d(1344, 1344, kernel_size=(3, 3), stride=(1, 1), padding=(1, 1), groups=1344, bias=False)
        (bn2): BatchNorm2d(1344, eps=1e-05, momentum=0.1, affine=True, track_running_stats=True)
        (act2): Changable_Act(
          (act_fun): Learnable_Relu6_Hard_SNL()
        )
        (se): Identity()
        (conv_pwl): Conv2d(1344, 224, kernel_size=(1, 1), stride=(1, 1), bias=False)
        (bn3): BatchNorm2d(224, eps=1e-05, momentum=0.1, affine=True, track_running_stats=True)
      )
      (2): InvertedResidual(
        (conv_pw): Conv2d(224, 1344, kernel_size=(1, 1), stride=(1, 1), bias=False)
        (bn1): BatchNorm2d(1344, eps=1e-05, momentum=0.1, affine=True, track_running_stats=True)
        (act1): Changable_Act(
          (act_fun): Learnable_Relu6_Hard_SNL()
        )
        (conv_dw): Conv2d(1344, 1344, kernel_size=(3, 3), stride=(1, 1), padding=(1, 1), groups=1344, bias=False)
        (bn2): BatchNorm2d(1344, eps=1e-05, momentum=0.1, affine=True, track_running_stats=True)
        (act2): Changable_Act(
          (act_fun): Learnable_Relu6_Hard_SNL()
        )
        (se): Identity()
        (conv_pwl): Conv2d(1344, 224, kernel_size=(1, 1), stride=(1, 1), bias=False)
        (bn3): BatchNorm2d(224, eps=1e-05, momentum=0.1, affine=True, track_running_stats=True)
      )
    )
    (6): Sequential(
      (0): InvertedResidual(
        (conv_pw): Conv2d(224, 1344, kernel_size=(1, 1), stride=(1, 1), bias=False)
        (bn1): BatchNorm2d(1344, eps=1e-05, momentum=0.1, affine=True, track_running_stats=True)
        (act1): Changable_Act(
          (act_fun): Learnable_Relu6_Hard_SNL()
        )
        (conv_dw): Conv2d(1344, 1344, kernel_size=(3, 3), stride=(1, 1), padding=(1, 1), groups=1344, bias=False)
        (bn2): BatchNorm2d(1344, eps=1e-05, momentum=0.1, affine=True, track_running_stats=True)
        (act2): Changable_Act(
          (act_fun): Learnable_Relu6_Hard_SNL()
        )
        (se): Identity()
        (conv_pwl): Conv2d(1344, 448, kernel_size=(1, 1), stride=(1, 1), bias=False)
        (bn3): BatchNorm2d(448, eps=1e-05, momentum=0.1, affine=True, track_running_stats=True)
      )
    )
  )
  (conv_head): Conv2d(448, 1792, kernel_size=(1, 1), stride=(1, 1), bias=False)
  (bn2): BatchNorm2d(1792, eps=1e-05, momentum=0.1, affine=True, track_running_stats=True)
  (act2): Changable_Act(
    (act_fun): Learnable_Relu6_Hard_SNL()
  )
  (global_pool): SelectAdaptivePool2d (pool_type=avg, flatten=Flatten(start_dim=1, end_dim=-1))
  (classifier): Linear(in_features=1792, out_features=1000, bias=True)
)
Successfully build teacher model
number of params (M): 6.108776
Unsupported operator aten::sub encountered 175 time(s)
Unsupported operator aten::mul encountered 210 time(s)
Unsupported operator aten::add encountered 210 time(s)
Unsupported operator aten::rsub encountered 105 time(s)
Unsupported operator aten::add_ encountered 10 time(s)
number of GFLOPs: 0.60143048
Start training
Train: [0/180][0/10009]	eta 4 days, 18:41:59 lr 0.100000	data 1.9079 (1.9079)	batch 41.2549 (41.2549)	loss 27.8915 (27.8915)	grad_norm 77.3803 (77.3803)	mem 26855MB
Creating model:mobilenetv2_140_block_ds/mobilenetv2_140_block_ds
Successfully load pretrained model: /home/mengli/projects/wenxuanzeng/RePriv/mobilenetv2_140_ra-21a4e913.pth
EfficientNet(
  (conv_stem): Conv2d(3, 48, kernel_size=(3, 3), stride=(2, 2), padding=(1, 1), bias=False)
  (bn1): BatchNorm2d(48, eps=1e-05, momentum=0.1, affine=True, track_running_stats=True)
  (act1): Changable_Act(
    (act_fun): Learnable_Relu6_Hard_SNL()
  )
  (blocks): Sequential(
    (0): Sequential(
      (0): DepthwiseSeparableConv(
        (conv_dw): Conv2d(48, 48, kernel_size=(3, 3), stride=(1, 1), padding=(1, 1), groups=48, bias=False)
        (bn1): BatchNorm2d(48, eps=1e-05, momentum=0.1, affine=True, track_running_stats=True)
        (act1): Changable_Act(
          (act_fun): Learnable_Relu6_Hard_SNL()
        )
        (se): Identity()
        (conv_pw): Conv2d(48, 24, kernel_size=(1, 1), stride=(1, 1), bias=False)
        (bn2): BatchNorm2d(24, eps=1e-05, momentum=0.1, affine=True, track_running_stats=True)
        (act2): Identity()
      )
    )
    (1): Sequential(
      (0): InvertedResidual(
        (conv_pw): Conv2d(24, 144, kernel_size=(1, 1), stride=(1, 1), bias=False)
        (bn1): BatchNorm2d(144, eps=1e-05, momentum=0.1, affine=True, track_running_stats=True)
        (act1): Changable_Act(
          (act_fun): Learnable_Relu6_Hard_SNL()
        )
        (conv_dw): Conv2d(144, 144, kernel_size=(3, 3), stride=(2, 2), padding=(1, 1), groups=144, bias=False)
        (bn2): BatchNorm2d(144, eps=1e-05, momentum=0.1, affine=True, track_running_stats=True)
        (act2): Changable_Act(
          (act_fun): Learnable_Relu6_Hard_SNL()
        )
        (se): Identity()
        (conv_pwl): Conv2d(144, 32, kernel_size=(1, 1), stride=(1, 1), bias=False)
        (bn3): BatchNorm2d(32, eps=1e-05, momentum=0.1, affine=True, track_running_stats=True)
      )
      (1): InvertedResidual(
        (conv_pw): Conv2d(32, 192, kernel_size=(1, 1), stride=(1, 1), bias=False)
        (bn1): BatchNorm2d(192, eps=1e-05, momentum=0.1, affine=True, track_running_stats=True)
        (act1): Changable_Act(
          (act_fun): Learnable_Relu6_Hard_SNL()
        )
        (conv_dw): Conv2d(192, 192, kernel_size=(3, 3), stride=(1, 1), padding=(1, 1), groups=192, bias=False)
        (bn2): BatchNorm2d(192, eps=1e-05, momentum=0.1, affine=True, track_running_stats=True)
        (act2): Changable_Act(
          (act_fun): Learnable_Relu6_Hard_SNL()
        )
        (se): Identity()
        (conv_pwl): Conv2d(192, 32, kernel_size=(1, 1), stride=(1, 1), bias=False)
        (bn3): BatchNorm2d(32, eps=1e-05, momentum=0.1, affine=True, track_running_stats=True)
      )
    )
    (2): Sequential(
      (0): InvertedResidual(
        (conv_pw): Conv2d(32, 192, kernel_size=(1, 1), stride=(1, 1), bias=False)
        (bn1): BatchNorm2d(192, eps=1e-05, momentum=0.1, affine=True, track_running_stats=True)
        (act1): Changable_Act(
          (act_fun): Learnable_Relu6_Hard_SNL()
        )
        (conv_dw): Conv2d(192, 192, kernel_size=(3, 3), stride=(2, 2), padding=(1, 1), groups=192, bias=False)
        (bn2): BatchNorm2d(192, eps=1e-05, momentum=0.1, affine=True, track_running_stats=True)
        (act2): Changable_Act(
          (act_fun): Learnable_Relu6_Hard_SNL()
        )
        (se): Identity()
        (conv_pwl): Conv2d(192, 48, kernel_size=(1, 1), stride=(1, 1), bias=False)
        (bn3): BatchNorm2d(48, eps=1e-05, momentum=0.1, affine=True, track_running_stats=True)
      )
      (1): InvertedResidual(
        (conv_pw): Conv2d(48, 288, kernel_size=(1, 1), stride=(1, 1), bias=False)
        (bn1): BatchNorm2d(288, eps=1e-05, momentum=0.1, affine=True, track_running_stats=True)
        (act1): Changable_Act(
          (act_fun): Learnable_Relu6_Hard_SNL()
        )
        (conv_dw): Conv2d(288, 288, kernel_size=(3, 3), stride=(1, 1), padding=(1, 1), groups=288, bias=False)
        (bn2): BatchNorm2d(288, eps=1e-05, momentum=0.1, affine=True, track_running_stats=True)
        (act2): Changable_Act(
          (act_fun): Learnable_Relu6_Hard_SNL()
        )
        (se): Identity()
        (conv_pwl): Conv2d(288, 48, kernel_size=(1, 1), stride=(1, 1), bias=False)
        (bn3): BatchNorm2d(48, eps=1e-05, momentum=0.1, affine=True, track_running_stats=True)
      )
      (2): InvertedResidual(
        (conv_pw): Conv2d(48, 288, kernel_size=(1, 1), stride=(1, 1), bias=False)
        (bn1): BatchNorm2d(288, eps=1e-05, momentum=0.1, affine=True, track_running_stats=True)
        (act1): Changable_Act(
          (act_fun): Learnable_Relu6_Hard_SNL()
        )
        (conv_dw): Conv2d(288, 288, kernel_size=(3, 3), stride=(1, 1), padding=(1, 1), groups=288, bias=False)
        (bn2): BatchNorm2d(288, eps=1e-05, momentum=0.1, affine=True, track_running_stats=True)
        (act2): Changable_Act(
          (act_fun): Learnable_Relu6_Hard_SNL()
        )
        (se): Identity()
        (conv_pwl): Conv2d(288, 48, kernel_size=(1, 1), stride=(1, 1), bias=False)
        (bn3): BatchNorm2d(48, eps=1e-05, momentum=0.1, affine=True, track_running_stats=True)
      )
    )
    (3): Sequential(
      (0): InvertedResidual(
        (conv_pw): Conv2d(48, 288, kernel_size=(1, 1), stride=(1, 1), bias=False)
        (bn1): BatchNorm2d(288, eps=1e-05, momentum=0.1, affine=True, track_running_stats=True)
        (act1): Changable_Act(
          (act_fun): Learnable_Relu6_Hard_SNL()
        )
        (conv_dw): Conv2d(288, 288, kernel_size=(3, 3), stride=(2, 2), padding=(1, 1), groups=288, bias=False)
        (bn2): BatchNorm2d(288, eps=1e-05, momentum=0.1, affine=True, track_running_stats=True)
        (act2): Changable_Act(
          (act_fun): Learnable_Relu6_Hard_SNL()
        )
        (se): Identity()
        (conv_pwl): Conv2d(288, 88, kernel_size=(1, 1), stride=(1, 1), bias=False)
        (bn3): BatchNorm2d(88, eps=1e-05, momentum=0.1, affine=True, track_running_stats=True)
      )
      (1): InvertedResidual(
        (conv_pw): Conv2d(88, 528, kernel_size=(1, 1), stride=(1, 1), bias=False)
        (bn1): BatchNorm2d(528, eps=1e-05, momentum=0.1, affine=True, track_running_stats=True)
        (act1): Changable_Act(
          (act_fun): Learnable_Relu6_Hard_SNL()
        )
        (conv_dw): Conv2d(528, 528, kernel_size=(3, 3), stride=(1, 1), padding=(1, 1), groups=528, bias=False)
        (bn2): BatchNorm2d(528, eps=1e-05, momentum=0.1, affine=True, track_running_stats=True)
        (act2): Changable_Act(
          (act_fun): Learnable_Relu6_Hard_SNL()
        )
        (se): Identity()
        (conv_pwl): Conv2d(528, 88, kernel_size=(1, 1), stride=(1, 1), bias=False)
        (bn3): BatchNorm2d(88, eps=1e-05, momentum=0.1, affine=True, track_running_stats=True)
      )
      (2): InvertedResidual(
        (conv_pw): Conv2d(88, 528, kernel_size=(1, 1), stride=(1, 1), bias=False)
        (bn1): BatchNorm2d(528, eps=1e-05, momentum=0.1, affine=True, track_running_stats=True)
        (act1): Changable_Act(
          (act_fun): Learnable_Relu6_Hard_SNL()
        )
        (conv_dw): Conv2d(528, 528, kernel_size=(3, 3), stride=(1, 1), padding=(1, 1), groups=528, bias=False)
        (bn2): BatchNorm2d(528, eps=1e-05, momentum=0.1, affine=True, track_running_stats=True)
        (act2): Changable_Act(
          (act_fun): Learnable_Relu6_Hard_SNL()
        )
        (se): Identity()
        (conv_pwl): Conv2d(528, 88, kernel_size=(1, 1), stride=(1, 1), bias=False)
        (bn3): BatchNorm2d(88, eps=1e-05, momentum=0.1, affine=True, track_running_stats=True)
      )
      (3): InvertedResidual(
        (conv_pw): Conv2d(88, 528, kernel_size=(1, 1), stride=(1, 1), bias=False)
        (bn1): BatchNorm2d(528, eps=1e-05, momentum=0.1, affine=True, track_running_stats=True)
        (act1): Changable_Act(
          (act_fun): Learnable_Relu6_Hard_SNL()
        )
        (conv_dw): Conv2d(528, 528, kernel_size=(3, 3), stride=(1, 1), padding=(1, 1), groups=528, bias=False)
        (bn2): BatchNorm2d(528, eps=1e-05, momentum=0.1, affine=True, track_running_stats=True)
        (act2): Changable_Act(
          (act_fun): Learnable_Relu6_Hard_SNL()
        )
        (se): Identity()
        (conv_pwl): Conv2d(528, 88, kernel_size=(1, 1), stride=(1, 1), bias=False)
        (bn3): BatchNorm2d(88, eps=1e-05, momentum=0.1, affine=True, track_running_stats=True)
      )
    )
    (4): Sequential(
      (0): InvertedResidual(
        (conv_pw): Conv2d(88, 528, kernel_size=(1, 1), stride=(1, 1), bias=False)
        (bn1): BatchNorm2d(528, eps=1e-05, momentum=0.1, affine=True, track_running_stats=True)
        (act1): Changable_Act(
          (act_fun): Learnable_Relu6_Hard_SNL()
        )
        (conv_dw): Conv2d(528, 528, kernel_size=(3, 3), stride=(1, 1), padding=(1, 1), groups=528, bias=False)
        (bn2): BatchNorm2d(528, eps=1e-05, momentum=0.1, affine=True, track_running_stats=True)
        (act2): Changable_Act(
          (act_fun): Learnable_Relu6_Hard_SNL()
        )
        (se): Identity()
        (conv_pwl): Conv2d(528, 136, kernel_size=(1, 1), stride=(1, 1), bias=False)
        (bn3): BatchNorm2d(136, eps=1e-05, momentum=0.1, affine=True, track_running_stats=True)
      )
      (1): InvertedResidual(
        (conv_pw): Conv2d(136, 816, kernel_size=(1, 1), stride=(1, 1), bias=False)
        (bn1): BatchNorm2d(816, eps=1e-05, momentum=0.1, affine=True, track_running_stats=True)
        (act1): Changable_Act(
          (act_fun): Learnable_Relu6_Hard_SNL()
        )
        (conv_dw): Conv2d(816, 816, kernel_size=(3, 3), stride=(1, 1), padding=(1, 1), groups=816, bias=False)
        (bn2): BatchNorm2d(816, eps=1e-05, momentum=0.1, affine=True, track_running_stats=True)
        (act2): Changable_Act(
          (act_fun): Learnable_Relu6_Hard_SNL()
        )
        (se): Identity()
        (conv_pwl): Conv2d(816, 136, kernel_size=(1, 1), stride=(1, 1), bias=False)
        (bn3): BatchNorm2d(136, eps=1e-05, momentum=0.1, affine=True, track_running_stats=True)
      )
      (2): InvertedResidual(
        (conv_pw): Conv2d(136, 816, kernel_size=(1, 1), stride=(1, 1), bias=False)
        (bn1): BatchNorm2d(816, eps=1e-05, momentum=0.1, affine=True, track_running_stats=True)
        (act1): Changable_Act(
          (act_fun): Learnable_Relu6_Hard_SNL()
        )
        (conv_dw): Conv2d(816, 816, kernel_size=(3, 3), stride=(1, 1), padding=(1, 1), groups=816, bias=False)
        (bn2): BatchNorm2d(816, eps=1e-05, momentum=0.1, affine=True, track_running_stats=True)
        (act2): Changable_Act(
          (act_fun): Learnable_Relu6_Hard_SNL()
        )
        (se): Identity()
        (conv_pwl): Conv2d(816, 136, kernel_size=(1, 1), stride=(1, 1), bias=False)
        (bn3): BatchNorm2d(136, eps=1e-05, momentum=0.1, affine=True, track_running_stats=True)
      )
    )
    (5): Sequential(
      (0): InvertedResidual(
        (conv_pw): Conv2d(136, 816, kernel_size=(1, 1), stride=(1, 1), bias=False)
        (bn1): BatchNorm2d(816, eps=1e-05, momentum=0.1, affine=True, track_running_stats=True)
        (act1): Changable_Act(
          (act_fun): Learnable_Relu6_Hard_SNL()
        )
        (conv_dw): Conv2d(816, 816, kernel_size=(3, 3), stride=(2, 2), padding=(1, 1), groups=816, bias=False)
        (bn2): BatchNorm2d(816, eps=1e-05, momentum=0.1, affine=True, track_running_stats=True)
        (act2): Changable_Act(
          (act_fun): Learnable_Relu6_Hard_SNL()
        )
        (se): Identity()
        (conv_pwl): Conv2d(816, 224, kernel_size=(1, 1), stride=(1, 1), bias=False)
        (bn3): BatchNorm2d(224, eps=1e-05, momentum=0.1, affine=True, track_running_stats=True)
      )
      (1): InvertedResidual(
        (conv_pw): Conv2d(224, 1344, kernel_size=(1, 1), stride=(1, 1), bias=False)
        (bn1): BatchNorm2d(1344, eps=1e-05, momentum=0.1, affine=True, track_running_stats=True)
        (act1): Changable_Act(
          (act_fun): Learnable_Relu6_Hard_SNL()
        )
        (conv_dw): Conv2d(1344, 1344, kernel_size=(3, 3), stride=(1, 1), padding=(1, 1), groups=1344, bias=False)
        (bn2): BatchNorm2d(1344, eps=1e-05, momentum=0.1, affine=True, track_running_stats=True)
        (act2): Changable_Act(
          (act_fun): Learnable_Relu6_Hard_SNL()
        )
        (se): Identity()
        (conv_pwl): Conv2d(1344, 224, kernel_size=(1, 1), stride=(1, 1), bias=False)
        (bn3): BatchNorm2d(224, eps=1e-05, momentum=0.1, affine=True, track_running_stats=True)
      )
      (2): InvertedResidual(
        (conv_pw): Conv2d(224, 1344, kernel_size=(1, 1), stride=(1, 1), bias=False)
        (bn1): BatchNorm2d(1344, eps=1e-05, momentum=0.1, affine=True, track_running_stats=True)
        (act1): Changable_Act(
          (act_fun): Learnable_Relu6_Hard_SNL()
        )
        (conv_dw): Conv2d(1344, 1344, kernel_size=(3, 3), stride=(1, 1), padding=(1, 1), groups=1344, bias=False)
        (bn2): BatchNorm2d(1344, eps=1e-05, momentum=0.1, affine=True, track_running_stats=True)
        (act2): Changable_Act(
          (act_fun): Learnable_Relu6_Hard_SNL()
        )
        (se): Identity()
        (conv_pwl): Conv2d(1344, 224, kernel_size=(1, 1), stride=(1, 1), bias=False)
        (bn3): BatchNorm2d(224, eps=1e-05, momentum=0.1, affine=True, track_running_stats=True)
      )
    )
    (6): Sequential(
      (0): InvertedResidual(
        (conv_pw): Conv2d(224, 1344, kernel_size=(1, 1), stride=(1, 1), bias=False)
        (bn1): BatchNorm2d(1344, eps=1e-05, momentum=0.1, affine=True, track_running_stats=True)
        (act1): Changable_Act(
          (act_fun): Learnable_Relu6_Hard_SNL()
        )
        (conv_dw): Conv2d(1344, 1344, kernel_size=(3, 3), stride=(1, 1), padding=(1, 1), groups=1344, bias=False)
        (bn2): BatchNorm2d(1344, eps=1e-05, momentum=0.1, affine=True, track_running_stats=True)
        (act2): Changable_Act(
          (act_fun): Learnable_Relu6_Hard_SNL()
        )
        (se): Identity()
        (conv_pwl): Conv2d(1344, 448, kernel_size=(1, 1), stride=(1, 1), bias=False)
        (bn3): BatchNorm2d(448, eps=1e-05, momentum=0.1, affine=True, track_running_stats=True)
      )
    )
  )
  (conv_head): Conv2d(448, 1792, kernel_size=(1, 1), stride=(1, 1), bias=False)
  (bn2): BatchNorm2d(1792, eps=1e-05, momentum=0.1, affine=True, track_running_stats=True)
  (act2): Changable_Act(
    (act_fun): Learnable_Relu6_Hard_SNL()
  )
  (global_pool): SelectAdaptivePool2d (pool_type=avg, flatten=Flatten(start_dim=1, end_dim=-1))
  (classifier): Linear(in_features=1792, out_features=1000, bias=True)
)
Successfully build teacher model
number of params (M): 6.108776
Unsupported operator aten::sub encountered 175 time(s)
Unsupported operator aten::mul encountered 210 time(s)
Unsupported operator aten::add encountered 210 time(s)
Unsupported operator aten::rsub encountered 105 time(s)
Unsupported operator aten::add_ encountered 10 time(s)
number of GFLOPs: 0.60143048
Start training
Creating model:mobilenetv2_140_block_ds/mobilenetv2_140_block_ds
Successfully load pretrained model: /home/mengli/projects/wenxuanzeng/RePriv/mobilenetv2_140_ra-21a4e913.pth
EfficientNet(
  (conv_stem): Conv2d(3, 48, kernel_size=(3, 3), stride=(2, 2), padding=(1, 1), bias=False)
  (bn1): BatchNorm2d(48, eps=1e-05, momentum=0.1, affine=True, track_running_stats=True)
  (act1): Changable_Act(
    (act_fun): Learnable_Relu6_Hard_SNL()
  )
  (blocks): Sequential(
    (0): Sequential(
      (0): DepthwiseSeparableConv(
        (conv_dw): Conv2d(48, 48, kernel_size=(3, 3), stride=(1, 1), padding=(1, 1), groups=48, bias=False)
        (bn1): BatchNorm2d(48, eps=1e-05, momentum=0.1, affine=True, track_running_stats=True)
        (act1): Changable_Act(
          (act_fun): Learnable_Relu6_Hard_SNL()
        )
        (se): Identity()
        (conv_pw): Conv2d(48, 24, kernel_size=(1, 1), stride=(1, 1), bias=False)
        (bn2): BatchNorm2d(24, eps=1e-05, momentum=0.1, affine=True, track_running_stats=True)
        (act2): Identity()
      )
    )
    (1): Sequential(
      (0): InvertedResidual(
        (conv_pw): Conv2d(24, 144, kernel_size=(1, 1), stride=(1, 1), bias=False)
        (bn1): BatchNorm2d(144, eps=1e-05, momentum=0.1, affine=True, track_running_stats=True)
        (act1): Changable_Act(
          (act_fun): Learnable_Relu6_Hard_SNL()
        )
        (conv_dw): Conv2d(144, 144, kernel_size=(3, 3), stride=(2, 2), padding=(1, 1), groups=144, bias=False)
        (bn2): BatchNorm2d(144, eps=1e-05, momentum=0.1, affine=True, track_running_stats=True)
        (act2): Changable_Act(
          (act_fun): Learnable_Relu6_Hard_SNL()
        )
        (se): Identity()
        (conv_pwl): Conv2d(144, 32, kernel_size=(1, 1), stride=(1, 1), bias=False)
        (bn3): BatchNorm2d(32, eps=1e-05, momentum=0.1, affine=True, track_running_stats=True)
      )
      (1): InvertedResidual(
        (conv_pw): Conv2d(32, 192, kernel_size=(1, 1), stride=(1, 1), bias=False)
        (bn1): BatchNorm2d(192, eps=1e-05, momentum=0.1, affine=True, track_running_stats=True)
        (act1): Changable_Act(
          (act_fun): Learnable_Relu6_Hard_SNL()
        )
        (conv_dw): Conv2d(192, 192, kernel_size=(3, 3), stride=(1, 1), padding=(1, 1), groups=192, bias=False)
        (bn2): BatchNorm2d(192, eps=1e-05, momentum=0.1, affine=True, track_running_stats=True)
        (act2): Changable_Act(
          (act_fun): Learnable_Relu6_Hard_SNL()
        )
        (se): Identity()
        (conv_pwl): Conv2d(192, 32, kernel_size=(1, 1), stride=(1, 1), bias=False)
        (bn3): BatchNorm2d(32, eps=1e-05, momentum=0.1, affine=True, track_running_stats=True)
      )
    )
    (2): Sequential(
      (0): InvertedResidual(
        (conv_pw): Conv2d(32, 192, kernel_size=(1, 1), stride=(1, 1), bias=False)
        (bn1): BatchNorm2d(192, eps=1e-05, momentum=0.1, affine=True, track_running_stats=True)
        (act1): Changable_Act(
          (act_fun): Learnable_Relu6_Hard_SNL()
        )
        (conv_dw): Conv2d(192, 192, kernel_size=(3, 3), stride=(2, 2), padding=(1, 1), groups=192, bias=False)
        (bn2): BatchNorm2d(192, eps=1e-05, momentum=0.1, affine=True, track_running_stats=True)
        (act2): Changable_Act(
          (act_fun): Learnable_Relu6_Hard_SNL()
        )
        (se): Identity()
        (conv_pwl): Conv2d(192, 48, kernel_size=(1, 1), stride=(1, 1), bias=False)
        (bn3): BatchNorm2d(48, eps=1e-05, momentum=0.1, affine=True, track_running_stats=True)
      )
      (1): InvertedResidual(
        (conv_pw): Conv2d(48, 288, kernel_size=(1, 1), stride=(1, 1), bias=False)
        (bn1): BatchNorm2d(288, eps=1e-05, momentum=0.1, affine=True, track_running_stats=True)
        (act1): Changable_Act(
          (act_fun): Learnable_Relu6_Hard_SNL()
        )
        (conv_dw): Conv2d(288, 288, kernel_size=(3, 3), stride=(1, 1), padding=(1, 1), groups=288, bias=False)
        (bn2): BatchNorm2d(288, eps=1e-05, momentum=0.1, affine=True, track_running_stats=True)
        (act2): Changable_Act(
          (act_fun): Learnable_Relu6_Hard_SNL()
        )
        (se): Identity()
        (conv_pwl): Conv2d(288, 48, kernel_size=(1, 1), stride=(1, 1), bias=False)
        (bn3): BatchNorm2d(48, eps=1e-05, momentum=0.1, affine=True, track_running_stats=True)
      )
      (2): InvertedResidual(
        (conv_pw): Conv2d(48, 288, kernel_size=(1, 1), stride=(1, 1), bias=False)
        (bn1): BatchNorm2d(288, eps=1e-05, momentum=0.1, affine=True, track_running_stats=True)
        (act1): Changable_Act(
          (act_fun): Learnable_Relu6_Hard_SNL()
        )
        (conv_dw): Conv2d(288, 288, kernel_size=(3, 3), stride=(1, 1), padding=(1, 1), groups=288, bias=False)
        (bn2): BatchNorm2d(288, eps=1e-05, momentum=0.1, affine=True, track_running_stats=True)
        (act2): Changable_Act(
          (act_fun): Learnable_Relu6_Hard_SNL()
        )
        (se): Identity()
        (conv_pwl): Conv2d(288, 48, kernel_size=(1, 1), stride=(1, 1), bias=False)
        (bn3): BatchNorm2d(48, eps=1e-05, momentum=0.1, affine=True, track_running_stats=True)
      )
    )
    (3): Sequential(
      (0): InvertedResidual(
        (conv_pw): Conv2d(48, 288, kernel_size=(1, 1), stride=(1, 1), bias=False)
        (bn1): BatchNorm2d(288, eps=1e-05, momentum=0.1, affine=True, track_running_stats=True)
        (act1): Changable_Act(
          (act_fun): Learnable_Relu6_Hard_SNL()
        )
        (conv_dw): Conv2d(288, 288, kernel_size=(3, 3), stride=(2, 2), padding=(1, 1), groups=288, bias=False)
        (bn2): BatchNorm2d(288, eps=1e-05, momentum=0.1, affine=True, track_running_stats=True)
        (act2): Changable_Act(
          (act_fun): Learnable_Relu6_Hard_SNL()
        )
        (se): Identity()
        (conv_pwl): Conv2d(288, 88, kernel_size=(1, 1), stride=(1, 1), bias=False)
        (bn3): BatchNorm2d(88, eps=1e-05, momentum=0.1, affine=True, track_running_stats=True)
      )
      (1): InvertedResidual(
        (conv_pw): Conv2d(88, 528, kernel_size=(1, 1), stride=(1, 1), bias=False)
        (bn1): BatchNorm2d(528, eps=1e-05, momentum=0.1, affine=True, track_running_stats=True)
        (act1): Changable_Act(
          (act_fun): Learnable_Relu6_Hard_SNL()
        )
        (conv_dw): Conv2d(528, 528, kernel_size=(3, 3), stride=(1, 1), padding=(1, 1), groups=528, bias=False)
        (bn2): BatchNorm2d(528, eps=1e-05, momentum=0.1, affine=True, track_running_stats=True)
        (act2): Changable_Act(
          (act_fun): Learnable_Relu6_Hard_SNL()
        )
        (se): Identity()
        (conv_pwl): Conv2d(528, 88, kernel_size=(1, 1), stride=(1, 1), bias=False)
        (bn3): BatchNorm2d(88, eps=1e-05, momentum=0.1, affine=True, track_running_stats=True)
      )
      (2): InvertedResidual(
        (conv_pw): Conv2d(88, 528, kernel_size=(1, 1), stride=(1, 1), bias=False)
        (bn1): BatchNorm2d(528, eps=1e-05, momentum=0.1, affine=True, track_running_stats=True)
        (act1): Changable_Act(
          (act_fun): Learnable_Relu6_Hard_SNL()
        )
        (conv_dw): Conv2d(528, 528, kernel_size=(3, 3), stride=(1, 1), padding=(1, 1), groups=528, bias=False)
        (bn2): BatchNorm2d(528, eps=1e-05, momentum=0.1, affine=True, track_running_stats=True)
        (act2): Changable_Act(
          (act_fun): Learnable_Relu6_Hard_SNL()
        )
        (se): Identity()
        (conv_pwl): Conv2d(528, 88, kernel_size=(1, 1), stride=(1, 1), bias=False)
        (bn3): BatchNorm2d(88, eps=1e-05, momentum=0.1, affine=True, track_running_stats=True)
      )
      (3): InvertedResidual(
        (conv_pw): Conv2d(88, 528, kernel_size=(1, 1), stride=(1, 1), bias=False)
        (bn1): BatchNorm2d(528, eps=1e-05, momentum=0.1, affine=True, track_running_stats=True)
        (act1): Changable_Act(
          (act_fun): Learnable_Relu6_Hard_SNL()
        )
        (conv_dw): Conv2d(528, 528, kernel_size=(3, 3), stride=(1, 1), padding=(1, 1), groups=528, bias=False)
        (bn2): BatchNorm2d(528, eps=1e-05, momentum=0.1, affine=True, track_running_stats=True)
        (act2): Changable_Act(
          (act_fun): Learnable_Relu6_Hard_SNL()
        )
        (se): Identity()
        (conv_pwl): Conv2d(528, 88, kernel_size=(1, 1), stride=(1, 1), bias=False)
        (bn3): BatchNorm2d(88, eps=1e-05, momentum=0.1, affine=True, track_running_stats=True)
      )
    )
    (4): Sequential(
      (0): InvertedResidual(
        (conv_pw): Conv2d(88, 528, kernel_size=(1, 1), stride=(1, 1), bias=False)
        (bn1): BatchNorm2d(528, eps=1e-05, momentum=0.1, affine=True, track_running_stats=True)
        (act1): Changable_Act(
          (act_fun): Learnable_Relu6_Hard_SNL()
        )
        (conv_dw): Conv2d(528, 528, kernel_size=(3, 3), stride=(1, 1), padding=(1, 1), groups=528, bias=False)
        (bn2): BatchNorm2d(528, eps=1e-05, momentum=0.1, affine=True, track_running_stats=True)
        (act2): Changable_Act(
          (act_fun): Learnable_Relu6_Hard_SNL()
        )
        (se): Identity()
        (conv_pwl): Conv2d(528, 136, kernel_size=(1, 1), stride=(1, 1), bias=False)
        (bn3): BatchNorm2d(136, eps=1e-05, momentum=0.1, affine=True, track_running_stats=True)
      )
      (1): InvertedResidual(
        (conv_pw): Conv2d(136, 816, kernel_size=(1, 1), stride=(1, 1), bias=False)
        (bn1): BatchNorm2d(816, eps=1e-05, momentum=0.1, affine=True, track_running_stats=True)
        (act1): Changable_Act(
          (act_fun): Learnable_Relu6_Hard_SNL()
        )
        (conv_dw): Conv2d(816, 816, kernel_size=(3, 3), stride=(1, 1), padding=(1, 1), groups=816, bias=False)
        (bn2): BatchNorm2d(816, eps=1e-05, momentum=0.1, affine=True, track_running_stats=True)
        (act2): Changable_Act(
          (act_fun): Learnable_Relu6_Hard_SNL()
        )
        (se): Identity()
        (conv_pwl): Conv2d(816, 136, kernel_size=(1, 1), stride=(1, 1), bias=False)
        (bn3): BatchNorm2d(136, eps=1e-05, momentum=0.1, affine=True, track_running_stats=True)
      )
      (2): InvertedResidual(
        (conv_pw): Conv2d(136, 816, kernel_size=(1, 1), stride=(1, 1), bias=False)
        (bn1): BatchNorm2d(816, eps=1e-05, momentum=0.1, affine=True, track_running_stats=True)
        (act1): Changable_Act(
          (act_fun): Learnable_Relu6_Hard_SNL()
        )
        (conv_dw): Conv2d(816, 816, kernel_size=(3, 3), stride=(1, 1), padding=(1, 1), groups=816, bias=False)
        (bn2): BatchNorm2d(816, eps=1e-05, momentum=0.1, affine=True, track_running_stats=True)
        (act2): Changable_Act(
          (act_fun): Learnable_Relu6_Hard_SNL()
        )
        (se): Identity()
        (conv_pwl): Conv2d(816, 136, kernel_size=(1, 1), stride=(1, 1), bias=False)
        (bn3): BatchNorm2d(136, eps=1e-05, momentum=0.1, affine=True, track_running_stats=True)
      )
    )
    (5): Sequential(
      (0): InvertedResidual(
        (conv_pw): Conv2d(136, 816, kernel_size=(1, 1), stride=(1, 1), bias=False)
        (bn1): BatchNorm2d(816, eps=1e-05, momentum=0.1, affine=True, track_running_stats=True)
        (act1): Changable_Act(
          (act_fun): Learnable_Relu6_Hard_SNL()
        )
        (conv_dw): Conv2d(816, 816, kernel_size=(3, 3), stride=(2, 2), padding=(1, 1), groups=816, bias=False)
        (bn2): BatchNorm2d(816, eps=1e-05, momentum=0.1, affine=True, track_running_stats=True)
        (act2): Changable_Act(
          (act_fun): Learnable_Relu6_Hard_SNL()
        )
        (se): Identity()
        (conv_pwl): Conv2d(816, 224, kernel_size=(1, 1), stride=(1, 1), bias=False)
        (bn3): BatchNorm2d(224, eps=1e-05, momentum=0.1, affine=True, track_running_stats=True)
      )
      (1): InvertedResidual(
        (conv_pw): Conv2d(224, 1344, kernel_size=(1, 1), stride=(1, 1), bias=False)
        (bn1): BatchNorm2d(1344, eps=1e-05, momentum=0.1, affine=True, track_running_stats=True)
        (act1): Changable_Act(
          (act_fun): Learnable_Relu6_Hard_SNL()
        )
        (conv_dw): Conv2d(1344, 1344, kernel_size=(3, 3), stride=(1, 1), padding=(1, 1), groups=1344, bias=False)
        (bn2): BatchNorm2d(1344, eps=1e-05, momentum=0.1, affine=True, track_running_stats=True)
        (act2): Changable_Act(
          (act_fun): Learnable_Relu6_Hard_SNL()
        )
        (se): Identity()
        (conv_pwl): Conv2d(1344, 224, kernel_size=(1, 1), stride=(1, 1), bias=False)
        (bn3): BatchNorm2d(224, eps=1e-05, momentum=0.1, affine=True, track_running_stats=True)
      )
      (2): InvertedResidual(
        (conv_pw): Conv2d(224, 1344, kernel_size=(1, 1), stride=(1, 1), bias=False)
        (bn1): BatchNorm2d(1344, eps=1e-05, momentum=0.1, affine=True, track_running_stats=True)
        (act1): Changable_Act(
          (act_fun): Learnable_Relu6_Hard_SNL()
        )
        (conv_dw): Conv2d(1344, 1344, kernel_size=(3, 3), stride=(1, 1), padding=(1, 1), groups=1344, bias=False)
        (bn2): BatchNorm2d(1344, eps=1e-05, momentum=0.1, affine=True, track_running_stats=True)
        (act2): Changable_Act(
          (act_fun): Learnable_Relu6_Hard_SNL()
        )
        (se): Identity()
        (conv_pwl): Conv2d(1344, 224, kernel_size=(1, 1), stride=(1, 1), bias=False)
        (bn3): BatchNorm2d(224, eps=1e-05, momentum=0.1, affine=True, track_running_stats=True)
      )
    )
    (6): Sequential(
      (0): InvertedResidual(
        (conv_pw): Conv2d(224, 1344, kernel_size=(1, 1), stride=(1, 1), bias=False)
        (bn1): BatchNorm2d(1344, eps=1e-05, momentum=0.1, affine=True, track_running_stats=True)
        (act1): Changable_Act(
          (act_fun): Learnable_Relu6_Hard_SNL()
        )
        (conv_dw): Conv2d(1344, 1344, kernel_size=(3, 3), stride=(1, 1), padding=(1, 1), groups=1344, bias=False)
        (bn2): BatchNorm2d(1344, eps=1e-05, momentum=0.1, affine=True, track_running_stats=True)
        (act2): Changable_Act(
          (act_fun): Learnable_Relu6_Hard_SNL()
        )
        (se): Identity()
        (conv_pwl): Conv2d(1344, 448, kernel_size=(1, 1), stride=(1, 1), bias=False)
        (bn3): BatchNorm2d(448, eps=1e-05, momentum=0.1, affine=True, track_running_stats=True)
      )
    )
  )
  (conv_head): Conv2d(448, 1792, kernel_size=(1, 1), stride=(1, 1), bias=False)
  (bn2): BatchNorm2d(1792, eps=1e-05, momentum=0.1, affine=True, track_running_stats=True)
  (act2): Changable_Act(
    (act_fun): Learnable_Relu6_Hard_SNL()
  )
  (global_pool): SelectAdaptivePool2d (pool_type=avg, flatten=Flatten(start_dim=1, end_dim=-1))
  (classifier): Linear(in_features=1792, out_features=1000, bias=True)
)
Successfully build teacher model
number of params (M): 6.108776
Unsupported operator aten::sub encountered 175 time(s)
Unsupported operator aten::mul encountered 210 time(s)
Unsupported operator aten::add encountered 210 time(s)
Unsupported operator aten::rsub encountered 105 time(s)
Unsupported operator aten::add_ encountered 10 time(s)
number of GFLOPs: 0.60143048
Start training
Train: [0/180][0/10009]	eta 15:41:50 lr 0.100000	data 1.5433 (1.5433)	batch 5.6460 (5.6460)	loss 25.3435 (25.3435)	grad_norm 77.8235 (77.8235)	mem 26855MB
Train: [0/180][1/10009]	eta 3 days, 15:17:38 lr 0.100000	data 0.0008 (0.7720)	batch 57.1554 (31.4007)	loss 23.0186 (24.1811)	grad_norm 65.5280 (71.6757)	mem 26980MB
Creating model:mobilenetv2_140_block_ds/mobilenetv2_140_block_ds
Successfully load pretrained model: /home/mengli/projects/wenxuanzeng/RePriv/mobilenetv2_140_ra-21a4e913.pth
EfficientNet(
  (conv_stem): Conv2d(3, 48, kernel_size=(3, 3), stride=(2, 2), padding=(1, 1), bias=False)
  (bn1): BatchNorm2d(48, eps=1e-05, momentum=0.1, affine=True, track_running_stats=True)
  (act1): Changable_Act(
    (act_fun): Learnable_Relu6_Hard_SNL()
  )
  (blocks): Sequential(
    (0): Sequential(
      (0): DepthwiseSeparableConv(
        (conv_dw): Conv2d(48, 48, kernel_size=(3, 3), stride=(1, 1), padding=(1, 1), groups=48, bias=False)
        (bn1): BatchNorm2d(48, eps=1e-05, momentum=0.1, affine=True, track_running_stats=True)
        (act1): Changable_Act(
          (act_fun): Learnable_Relu6_Hard_SNL()
        )
        (se): Identity()
        (conv_pw): Conv2d(48, 24, kernel_size=(1, 1), stride=(1, 1), bias=False)
        (bn2): BatchNorm2d(24, eps=1e-05, momentum=0.1, affine=True, track_running_stats=True)
        (act2): Identity()
      )
    )
    (1): Sequential(
      (0): InvertedResidual(
        (conv_pw): Conv2d(24, 144, kernel_size=(1, 1), stride=(1, 1), bias=False)
        (bn1): BatchNorm2d(144, eps=1e-05, momentum=0.1, affine=True, track_running_stats=True)
        (act1): Changable_Act(
          (act_fun): Learnable_Relu6_Hard_SNL()
        )
        (conv_dw): Conv2d(144, 144, kernel_size=(3, 3), stride=(2, 2), padding=(1, 1), groups=144, bias=False)
        (bn2): BatchNorm2d(144, eps=1e-05, momentum=0.1, affine=True, track_running_stats=True)
        (act2): Changable_Act(
          (act_fun): Learnable_Relu6_Hard_SNL()
        )
        (se): Identity()
        (conv_pwl): Conv2d(144, 32, kernel_size=(1, 1), stride=(1, 1), bias=False)
        (bn3): BatchNorm2d(32, eps=1e-05, momentum=0.1, affine=True, track_running_stats=True)
      )
      (1): InvertedResidual(
        (conv_pw): Conv2d(32, 192, kernel_size=(1, 1), stride=(1, 1), bias=False)
        (bn1): BatchNorm2d(192, eps=1e-05, momentum=0.1, affine=True, track_running_stats=True)
        (act1): Changable_Act(
          (act_fun): Learnable_Relu6_Hard_SNL()
        )
        (conv_dw): Conv2d(192, 192, kernel_size=(3, 3), stride=(1, 1), padding=(1, 1), groups=192, bias=False)
        (bn2): BatchNorm2d(192, eps=1e-05, momentum=0.1, affine=True, track_running_stats=True)
        (act2): Changable_Act(
          (act_fun): Learnable_Relu6_Hard_SNL()
        )
        (se): Identity()
        (conv_pwl): Conv2d(192, 32, kernel_size=(1, 1), stride=(1, 1), bias=False)
        (bn3): BatchNorm2d(32, eps=1e-05, momentum=0.1, affine=True, track_running_stats=True)
      )
    )
    (2): Sequential(
      (0): InvertedResidual(
        (conv_pw): Conv2d(32, 192, kernel_size=(1, 1), stride=(1, 1), bias=False)
        (bn1): BatchNorm2d(192, eps=1e-05, momentum=0.1, affine=True, track_running_stats=True)
        (act1): Changable_Act(
          (act_fun): Learnable_Relu6_Hard_SNL()
        )
        (conv_dw): Conv2d(192, 192, kernel_size=(3, 3), stride=(2, 2), padding=(1, 1), groups=192, bias=False)
        (bn2): BatchNorm2d(192, eps=1e-05, momentum=0.1, affine=True, track_running_stats=True)
        (act2): Changable_Act(
          (act_fun): Learnable_Relu6_Hard_SNL()
        )
        (se): Identity()
        (conv_pwl): Conv2d(192, 48, kernel_size=(1, 1), stride=(1, 1), bias=False)
        (bn3): BatchNorm2d(48, eps=1e-05, momentum=0.1, affine=True, track_running_stats=True)
      )
      (1): InvertedResidual(
        (conv_pw): Conv2d(48, 288, kernel_size=(1, 1), stride=(1, 1), bias=False)
        (bn1): BatchNorm2d(288, eps=1e-05, momentum=0.1, affine=True, track_running_stats=True)
        (act1): Changable_Act(
          (act_fun): Learnable_Relu6_Hard_SNL()
        )
        (conv_dw): Conv2d(288, 288, kernel_size=(3, 3), stride=(1, 1), padding=(1, 1), groups=288, bias=False)
        (bn2): BatchNorm2d(288, eps=1e-05, momentum=0.1, affine=True, track_running_stats=True)
        (act2): Changable_Act(
          (act_fun): Learnable_Relu6_Hard_SNL()
        )
        (se): Identity()
        (conv_pwl): Conv2d(288, 48, kernel_size=(1, 1), stride=(1, 1), bias=False)
        (bn3): BatchNorm2d(48, eps=1e-05, momentum=0.1, affine=True, track_running_stats=True)
      )
      (2): InvertedResidual(
        (conv_pw): Conv2d(48, 288, kernel_size=(1, 1), stride=(1, 1), bias=False)
        (bn1): BatchNorm2d(288, eps=1e-05, momentum=0.1, affine=True, track_running_stats=True)
        (act1): Changable_Act(
          (act_fun): Learnable_Relu6_Hard_SNL()
        )
        (conv_dw): Conv2d(288, 288, kernel_size=(3, 3), stride=(1, 1), padding=(1, 1), groups=288, bias=False)
        (bn2): BatchNorm2d(288, eps=1e-05, momentum=0.1, affine=True, track_running_stats=True)
        (act2): Changable_Act(
          (act_fun): Learnable_Relu6_Hard_SNL()
        )
        (se): Identity()
        (conv_pwl): Conv2d(288, 48, kernel_size=(1, 1), stride=(1, 1), bias=False)
        (bn3): BatchNorm2d(48, eps=1e-05, momentum=0.1, affine=True, track_running_stats=True)
      )
    )
    (3): Sequential(
      (0): InvertedResidual(
        (conv_pw): Conv2d(48, 288, kernel_size=(1, 1), stride=(1, 1), bias=False)
        (bn1): BatchNorm2d(288, eps=1e-05, momentum=0.1, affine=True, track_running_stats=True)
        (act1): Changable_Act(
          (act_fun): Learnable_Relu6_Hard_SNL()
        )
        (conv_dw): Conv2d(288, 288, kernel_size=(3, 3), stride=(2, 2), padding=(1, 1), groups=288, bias=False)
        (bn2): BatchNorm2d(288, eps=1e-05, momentum=0.1, affine=True, track_running_stats=True)
        (act2): Changable_Act(
          (act_fun): Learnable_Relu6_Hard_SNL()
        )
        (se): Identity()
        (conv_pwl): Conv2d(288, 88, kernel_size=(1, 1), stride=(1, 1), bias=False)
        (bn3): BatchNorm2d(88, eps=1e-05, momentum=0.1, affine=True, track_running_stats=True)
      )
      (1): InvertedResidual(
        (conv_pw): Conv2d(88, 528, kernel_size=(1, 1), stride=(1, 1), bias=False)
        (bn1): BatchNorm2d(528, eps=1e-05, momentum=0.1, affine=True, track_running_stats=True)
        (act1): Changable_Act(
          (act_fun): Learnable_Relu6_Hard_SNL()
        )
        (conv_dw): Conv2d(528, 528, kernel_size=(3, 3), stride=(1, 1), padding=(1, 1), groups=528, bias=False)
        (bn2): BatchNorm2d(528, eps=1e-05, momentum=0.1, affine=True, track_running_stats=True)
        (act2): Changable_Act(
          (act_fun): Learnable_Relu6_Hard_SNL()
        )
        (se): Identity()
        (conv_pwl): Conv2d(528, 88, kernel_size=(1, 1), stride=(1, 1), bias=False)
        (bn3): BatchNorm2d(88, eps=1e-05, momentum=0.1, affine=True, track_running_stats=True)
      )
      (2): InvertedResidual(
        (conv_pw): Conv2d(88, 528, kernel_size=(1, 1), stride=(1, 1), bias=False)
        (bn1): BatchNorm2d(528, eps=1e-05, momentum=0.1, affine=True, track_running_stats=True)
        (act1): Changable_Act(
          (act_fun): Learnable_Relu6_Hard_SNL()
        )
        (conv_dw): Conv2d(528, 528, kernel_size=(3, 3), stride=(1, 1), padding=(1, 1), groups=528, bias=False)
        (bn2): BatchNorm2d(528, eps=1e-05, momentum=0.1, affine=True, track_running_stats=True)
        (act2): Changable_Act(
          (act_fun): Learnable_Relu6_Hard_SNL()
        )
        (se): Identity()
        (conv_pwl): Conv2d(528, 88, kernel_size=(1, 1), stride=(1, 1), bias=False)
        (bn3): BatchNorm2d(88, eps=1e-05, momentum=0.1, affine=True, track_running_stats=True)
      )
      (3): InvertedResidual(
        (conv_pw): Conv2d(88, 528, kernel_size=(1, 1), stride=(1, 1), bias=False)
        (bn1): BatchNorm2d(528, eps=1e-05, momentum=0.1, affine=True, track_running_stats=True)
        (act1): Changable_Act(
          (act_fun): Learnable_Relu6_Hard_SNL()
        )
        (conv_dw): Conv2d(528, 528, kernel_size=(3, 3), stride=(1, 1), padding=(1, 1), groups=528, bias=False)
        (bn2): BatchNorm2d(528, eps=1e-05, momentum=0.1, affine=True, track_running_stats=True)
        (act2): Changable_Act(
          (act_fun): Learnable_Relu6_Hard_SNL()
        )
        (se): Identity()
        (conv_pwl): Conv2d(528, 88, kernel_size=(1, 1), stride=(1, 1), bias=False)
        (bn3): BatchNorm2d(88, eps=1e-05, momentum=0.1, affine=True, track_running_stats=True)
      )
    )
    (4): Sequential(
      (0): InvertedResidual(
        (conv_pw): Conv2d(88, 528, kernel_size=(1, 1), stride=(1, 1), bias=False)
        (bn1): BatchNorm2d(528, eps=1e-05, momentum=0.1, affine=True, track_running_stats=True)
        (act1): Changable_Act(
          (act_fun): Learnable_Relu6_Hard_SNL()
        )
        (conv_dw): Conv2d(528, 528, kernel_size=(3, 3), stride=(1, 1), padding=(1, 1), groups=528, bias=False)
        (bn2): BatchNorm2d(528, eps=1e-05, momentum=0.1, affine=True, track_running_stats=True)
        (act2): Changable_Act(
          (act_fun): Learnable_Relu6_Hard_SNL()
        )
        (se): Identity()
        (conv_pwl): Conv2d(528, 136, kernel_size=(1, 1), stride=(1, 1), bias=False)
        (bn3): BatchNorm2d(136, eps=1e-05, momentum=0.1, affine=True, track_running_stats=True)
      )
      (1): InvertedResidual(
        (conv_pw): Conv2d(136, 816, kernel_size=(1, 1), stride=(1, 1), bias=False)
        (bn1): BatchNorm2d(816, eps=1e-05, momentum=0.1, affine=True, track_running_stats=True)
        (act1): Changable_Act(
          (act_fun): Learnable_Relu6_Hard_SNL()
        )
        (conv_dw): Conv2d(816, 816, kernel_size=(3, 3), stride=(1, 1), padding=(1, 1), groups=816, bias=False)
        (bn2): BatchNorm2d(816, eps=1e-05, momentum=0.1, affine=True, track_running_stats=True)
        (act2): Changable_Act(
          (act_fun): Learnable_Relu6_Hard_SNL()
        )
        (se): Identity()
        (conv_pwl): Conv2d(816, 136, kernel_size=(1, 1), stride=(1, 1), bias=False)
        (bn3): BatchNorm2d(136, eps=1e-05, momentum=0.1, affine=True, track_running_stats=True)
      )
      (2): InvertedResidual(
        (conv_pw): Conv2d(136, 816, kernel_size=(1, 1), stride=(1, 1), bias=False)
        (bn1): BatchNorm2d(816, eps=1e-05, momentum=0.1, affine=True, track_running_stats=True)
        (act1): Changable_Act(
          (act_fun): Learnable_Relu6_Hard_SNL()
        )
        (conv_dw): Conv2d(816, 816, kernel_size=(3, 3), stride=(1, 1), padding=(1, 1), groups=816, bias=False)
        (bn2): BatchNorm2d(816, eps=1e-05, momentum=0.1, affine=True, track_running_stats=True)
        (act2): Changable_Act(
          (act_fun): Learnable_Relu6_Hard_SNL()
        )
        (se): Identity()
        (conv_pwl): Conv2d(816, 136, kernel_size=(1, 1), stride=(1, 1), bias=False)
        (bn3): BatchNorm2d(136, eps=1e-05, momentum=0.1, affine=True, track_running_stats=True)
      )
    )
    (5): Sequential(
      (0): InvertedResidual(
        (conv_pw): Conv2d(136, 816, kernel_size=(1, 1), stride=(1, 1), bias=False)
        (bn1): BatchNorm2d(816, eps=1e-05, momentum=0.1, affine=True, track_running_stats=True)
        (act1): Changable_Act(
          (act_fun): Learnable_Relu6_Hard_SNL()
        )
        (conv_dw): Conv2d(816, 816, kernel_size=(3, 3), stride=(2, 2), padding=(1, 1), groups=816, bias=False)
        (bn2): BatchNorm2d(816, eps=1e-05, momentum=0.1, affine=True, track_running_stats=True)
        (act2): Changable_Act(
          (act_fun): Learnable_Relu6_Hard_SNL()
        )
        (se): Identity()
        (conv_pwl): Conv2d(816, 224, kernel_size=(1, 1), stride=(1, 1), bias=False)
        (bn3): BatchNorm2d(224, eps=1e-05, momentum=0.1, affine=True, track_running_stats=True)
      )
      (1): InvertedResidual(
        (conv_pw): Conv2d(224, 1344, kernel_size=(1, 1), stride=(1, 1), bias=False)
        (bn1): BatchNorm2d(1344, eps=1e-05, momentum=0.1, affine=True, track_running_stats=True)
        (act1): Changable_Act(
          (act_fun): Learnable_Relu6_Hard_SNL()
        )
        (conv_dw): Conv2d(1344, 1344, kernel_size=(3, 3), stride=(1, 1), padding=(1, 1), groups=1344, bias=False)
        (bn2): BatchNorm2d(1344, eps=1e-05, momentum=0.1, affine=True, track_running_stats=True)
        (act2): Changable_Act(
          (act_fun): Learnable_Relu6_Hard_SNL()
        )
        (se): Identity()
        (conv_pwl): Conv2d(1344, 224, kernel_size=(1, 1), stride=(1, 1), bias=False)
        (bn3): BatchNorm2d(224, eps=1e-05, momentum=0.1, affine=True, track_running_stats=True)
      )
      (2): InvertedResidual(
        (conv_pw): Conv2d(224, 1344, kernel_size=(1, 1), stride=(1, 1), bias=False)
        (bn1): BatchNorm2d(1344, eps=1e-05, momentum=0.1, affine=True, track_running_stats=True)
        (act1): Changable_Act(
          (act_fun): Learnable_Relu6_Hard_SNL()
        )
        (conv_dw): Conv2d(1344, 1344, kernel_size=(3, 3), stride=(1, 1), padding=(1, 1), groups=1344, bias=False)
        (bn2): BatchNorm2d(1344, eps=1e-05, momentum=0.1, affine=True, track_running_stats=True)
        (act2): Changable_Act(
          (act_fun): Learnable_Relu6_Hard_SNL()
        )
        (se): Identity()
        (conv_pwl): Conv2d(1344, 224, kernel_size=(1, 1), stride=(1, 1), bias=False)
        (bn3): BatchNorm2d(224, eps=1e-05, momentum=0.1, affine=True, track_running_stats=True)
      )
    )
    (6): Sequential(
      (0): InvertedResidual(
        (conv_pw): Conv2d(224, 1344, kernel_size=(1, 1), stride=(1, 1), bias=False)
        (bn1): BatchNorm2d(1344, eps=1e-05, momentum=0.1, affine=True, track_running_stats=True)
        (act1): Changable_Act(
          (act_fun): Learnable_Relu6_Hard_SNL()
        )
        (conv_dw): Conv2d(1344, 1344, kernel_size=(3, 3), stride=(1, 1), padding=(1, 1), groups=1344, bias=False)
        (bn2): BatchNorm2d(1344, eps=1e-05, momentum=0.1, affine=True, track_running_stats=True)
        (act2): Changable_Act(
          (act_fun): Learnable_Relu6_Hard_SNL()
        )
        (se): Identity()
        (conv_pwl): Conv2d(1344, 448, kernel_size=(1, 1), stride=(1, 1), bias=False)
        (bn3): BatchNorm2d(448, eps=1e-05, momentum=0.1, affine=True, track_running_stats=True)
      )
    )
  )
  (conv_head): Conv2d(448, 1792, kernel_size=(1, 1), stride=(1, 1), bias=False)
  (bn2): BatchNorm2d(1792, eps=1e-05, momentum=0.1, affine=True, track_running_stats=True)
  (act2): Changable_Act(
    (act_fun): Learnable_Relu6_Hard_SNL()
  )
  (global_pool): SelectAdaptivePool2d (pool_type=avg, flatten=Flatten(start_dim=1, end_dim=-1))
  (classifier): Linear(in_features=1792, out_features=1000, bias=True)
)
Successfully build teacher model
number of params (M): 6.108776
Unsupported operator aten::sub encountered 175 time(s)
Unsupported operator aten::mul encountered 210 time(s)
Unsupported operator aten::add encountered 210 time(s)
Unsupported operator aten::rsub encountered 105 time(s)
Unsupported operator aten::add_ encountered 10 time(s)
number of GFLOPs: 0.60143048
Start training
Creating model:mobilenetv2_140_block_ds/mobilenetv2_140_block_ds
Successfully load pretrained model: /home/mengli/projects/wenxuanzeng/RePriv/mobilenetv2_140_ra-21a4e913.pth
EfficientNet(
  (conv_stem): Conv2d(3, 48, kernel_size=(3, 3), stride=(2, 2), padding=(1, 1), bias=False)
  (bn1): BatchNorm2d(48, eps=1e-05, momentum=0.1, affine=True, track_running_stats=True)
  (act1): Changable_Act(
    (act_fun): Learnable_Relu6_Hard_SNL()
  )
  (blocks): Sequential(
    (0): Sequential(
      (0): DepthwiseSeparableConv(
        (conv_dw): Conv2d(48, 48, kernel_size=(3, 3), stride=(1, 1), padding=(1, 1), groups=48, bias=False)
        (bn1): BatchNorm2d(48, eps=1e-05, momentum=0.1, affine=True, track_running_stats=True)
        (act1): Changable_Act(
          (act_fun): Learnable_Relu6_Hard_SNL()
        )
        (se): Identity()
        (conv_pw): Conv2d(48, 24, kernel_size=(1, 1), stride=(1, 1), bias=False)
        (bn2): BatchNorm2d(24, eps=1e-05, momentum=0.1, affine=True, track_running_stats=True)
        (act2): Identity()
      )
    )
    (1): Sequential(
      (0): InvertedResidual(
        (conv_pw): Conv2d(24, 144, kernel_size=(1, 1), stride=(1, 1), bias=False)
        (bn1): BatchNorm2d(144, eps=1e-05, momentum=0.1, affine=True, track_running_stats=True)
        (act1): Changable_Act(
          (act_fun): Learnable_Relu6_Hard_SNL()
        )
        (conv_dw): Conv2d(144, 144, kernel_size=(3, 3), stride=(2, 2), padding=(1, 1), groups=144, bias=False)
        (bn2): BatchNorm2d(144, eps=1e-05, momentum=0.1, affine=True, track_running_stats=True)
        (act2): Changable_Act(
          (act_fun): Learnable_Relu6_Hard_SNL()
        )
        (se): Identity()
        (conv_pwl): Conv2d(144, 32, kernel_size=(1, 1), stride=(1, 1), bias=False)
        (bn3): BatchNorm2d(32, eps=1e-05, momentum=0.1, affine=True, track_running_stats=True)
      )
      (1): InvertedResidual(
        (conv_pw): Conv2d(32, 192, kernel_size=(1, 1), stride=(1, 1), bias=False)
        (bn1): BatchNorm2d(192, eps=1e-05, momentum=0.1, affine=True, track_running_stats=True)
        (act1): Changable_Act(
          (act_fun): Learnable_Relu6_Hard_SNL()
        )
        (conv_dw): Conv2d(192, 192, kernel_size=(3, 3), stride=(1, 1), padding=(1, 1), groups=192, bias=False)
        (bn2): BatchNorm2d(192, eps=1e-05, momentum=0.1, affine=True, track_running_stats=True)
        (act2): Changable_Act(
          (act_fun): Learnable_Relu6_Hard_SNL()
        )
        (se): Identity()
…
        (act1): Changable_Act(
          (act_fun): Learnable_Relu6_Hard_SNL()
        )
        (conv_dw): Conv2d(816, 816, kernel_size=(3, 3), stride=(1, 1), padding=(1, 1), groups=816, bias=False)
        (bn2): BatchNorm2d(816, eps=1e-05, momentum=0.1, affine=True, track_running_stats=True)
        (act2): Changable_Act(
          (act_fun): Learnable_Relu6_Hard_SNL()
        )
        (se): Identity()
        (conv_pwl): Conv2d(816, 136, kernel_size=(1, 1), stride=(1, 1), bias=False)
        (bn3): BatchNorm2d(136, eps=1e-05, momentum=0.1, affine=True, track_running_stats=True)
      )
    )
    (5): Sequential(
      (0): InvertedResidual(
        (conv_pw): Conv2d(136, 816, kernel_size=(1, 1), stride=(1, 1), bias=False)
        (bn1): BatchNorm2d(816, eps=1e-05, momentum=0.1, affine=True, track_running_stats=True)
        (act1): Changable_Act(
          (act_fun): Learnable_Relu6_Hard_SNL()
        )
        (conv_dw): Conv2d(816, 816, kernel_size=(3, 3), stride=(2, 2), padding=(1, 1), groups=816, bias=False)
        (bn2): BatchNorm2d(816, eps=1e-05, momentum=0.1, affine=True, track_running_stats=True)
        (act2): Changable_Act(
          (act_fun): Learnable_Relu6_Hard_SNL()
        )
        (se): Identity()
        (conv_pwl): Conv2d(816, 224, kernel_size=(1, 1), stride=(1, 1), bias=False)
        (bn3): BatchNorm2d(224, eps=1e-05, momentum=0.1, affine=True, track_running_stats=True)
      )
      (1): InvertedResidual(
        (conv_pw): Conv2d(224, 1344, kernel_size=(1, 1), stride=(1, 1), bias=False)
        (bn1): BatchNorm2d(1344, eps=1e-05, momentum=0.1, affine=True, track_running_stats=True)
        (act1): Changable_Act(
          (act_fun): Learnable_Relu6_Hard_SNL()
        )
        (conv_dw): Conv2d(1344, 1344, kernel_size=(3, 3), stride=(1, 1), padding=(1, 1), groups=1344, bias=False)
        (bn2): BatchNorm2d(1344, eps=1e-05, momentum=0.1, affine=True, track_running_stats=True)
        (act2): Changable_Act(
          (act_fun): Learnable_Relu6_Hard_SNL()
        )
        (se): Identity()
        (conv_pwl): Conv2d(1344, 224, kernel_size=(1, 1), stride=(1, 1), bias=False)
        (bn3): BatchNorm2d(224, eps=1e-05, momentum=0.1, affine=True, track_running_stats=True)
      )
      (2): InvertedResidual(
        (conv_pw): Conv2d(224, 1344, kernel_size=(1, 1), stride=(1, 1), bias=False)
        (bn1): BatchNorm2d(1344, eps=1e-05, momentum=0.1, affine=True, track_running_stats=True)
        (act1): Changable_Act(
          (act_fun): Learnable_Relu6_Hard_SNL()
        )
        (conv_dw): Conv2d(1344, 1344, kernel_size=(3, 3), stride=(1, 1), padding=(1, 1), groups=1344, bias=False)
        (bn2): BatchNorm2d(1344, eps=1e-05, momentum=0.1, affine=True, track_running_stats=True)
        (act2): Changable_Act(
          (act_fun): Learnable_Relu6_Hard_SNL()
        )
        (se): Identity()
        (conv_pwl): Conv2d(1344, 224, kernel_size=(1, 1), stride=(1, 1), bias=False)
        (bn3): BatchNorm2d(224, eps=1e-05, momentum=0.1, affine=True, track_running_stats=True)
      )
    )
    (6): Sequential(
      (0): InvertedResidual(
        (conv_pw): Conv2d(224, 1344, kernel_size=(1, 1), stride=(1, 1), bias=False)
        (bn1): BatchNorm2d(1344, eps=1e-05, momentum=0.1, affine=True, track_running_stats=True)
        (act1): Changable_Act(
          (act_fun): Learnable_Relu6_Hard_SNL()
        )
        (conv_dw): Conv2d(1344, 1344, kernel_size=(3, 3), stride=(1, 1), padding=(1, 1), groups=1344, bias=False)
        (bn2): BatchNorm2d(1344, eps=1e-05, momentum=0.1, affine=True, track_running_stats=True)
        (act2): Changable_Act(
          (act_fun): Learnable_Relu6_Hard_SNL()
        )
        (se): Identity()
        (conv_pwl): Conv2d(1344, 448, kernel_size=(1, 1), stride=(1, 1), bias=False)
        (bn3): BatchNorm2d(448, eps=1e-05, momentum=0.1, affine=True, track_running_stats=True)
      )
    )
  )
  (conv_head): Conv2d(448, 1792, kernel_size=(1, 1), stride=(1, 1), bias=False)
  (bn2): BatchNorm2d(1792, eps=1e-05, momentum=0.1, affine=True, track_running_stats=True)
  (act2): Changable_Act(
    (act_fun): Learnable_Relu6_Hard_SNL()
  )
  (global_pool): SelectAdaptivePool2d (pool_type=avg, flatten=Flatten(start_dim=1, end_dim=-1))
  (classifier): Linear(in_features=1792, out_features=1000, bias=True)
)
Successfully build teacher model
number of params (M): 6.130632
Unsupported operator aten::sub encountered 175 time(s)
Unsupported operator aten::mul encountered 210 time(s)
Unsupported operator aten::add encountered 210 time(s)
Unsupported operator aten::rsub encountered 105 time(s)
Unsupported operator aten::add_ encountered 10 time(s)
number of GFLOPs: 0.60143048
Start training
Train: [0/180][0/10009]	eta 2 days, 15:33:06 lr 0.100000	data 1.7937 (1.7937)	batch 22.8581 (22.8581)	loss 27.1495 (27.1495)	grad_norm 76.5213 (76.5213)	mem 26855MB
Creating model:mobilenetv2_140_block_ds/mobilenetv2_140_block_ds
Successfully load pretrained model: /home/mengli/projects/wenxuanzeng/RePriv/mobilenetv2_140_ra-21a4e913.pth
EfficientNet(
  (conv_stem): Conv2d(3, 48, kernel_size=(3, 3), stride=(2, 2), padding=(1, 1), bias=False)
  (bn1): BatchNorm2d(48, eps=1e-05, momentum=0.1, affine=True, track_running_stats=True)
  (act1): Changable_Act(
    (act_fun): Learnable_Relu6_Hard_SNL()
  )
  (blocks): Sequential(
    (0): Sequential(
      (0): DepthwiseSeparableConv(
        (conv_dw): Conv2d(48, 48, kernel_size=(3, 3), stride=(1, 1), padding=(1, 1), groups=48, bias=False)
        (bn1): BatchNorm2d(48, eps=1e-05, momentum=0.1, affine=True, track_running_stats=True)
        (act1): Changable_Act(
          (act_fun): Learnable_Relu6_Hard_SNL()
        )
        (se): Identity()
        (conv_pw): Conv2d(48, 24, kernel_size=(1, 1), stride=(1, 1), bias=False)
        (bn2): BatchNorm2d(24, eps=1e-05, momentum=0.1, affine=True, track_running_stats=True)
        (act2): Identity()
      )
    )
    (1): Sequential(
      (0): InvertedResidual(
        (conv_pw): Conv2d(24, 144, kernel_size=(1, 1), stride=(1, 1), bias=False)
        (bn1): BatchNorm2d(144, eps=1e-05, momentum=0.1, affine=True, track_running_stats=True)
        (act1): Changable_Act(
          (act_fun): Learnable_Relu6_Hard_SNL()
        )
        (conv_dw): Conv2d(144, 144, kernel_size=(3, 3), stride=(2, 2), padding=(1, 1), groups=144, bias=False)
        (bn2): BatchNorm2d(144, eps=1e-05, momentum=0.1, affine=True, track_running_stats=True)
        (act2): Changable_Act(
          (act_fun): Learnable_Relu6_Hard_SNL()
        )
        (se): Identity()
        (conv_pwl): Conv2d(144, 32, kernel_size=(1, 1), stride=(1, 1), bias=False)
        (bn3): BatchNorm2d(32, eps=1e-05, momentum=0.1, affine=True, track_running_stats=True)
      )
      (1): InvertedResidual(
        (conv_pw): Conv2d(32, 192, kernel_size=(1, 1), stride=(1, 1), bias=False)
        (bn1): BatchNorm2d(192, eps=1e-05, momentum=0.1, affine=True, track_running_stats=True)
        (act1): Changable_Act(
          (act_fun): Learnable_Relu6_Hard_SNL()
        )
        (conv_dw): Conv2d(192, 192, kernel_size=(3, 3), stride=(1, 1), padding=(1, 1), groups=192, bias=False)
        (bn2): BatchNorm2d(192, eps=1e-05, momentum=0.1, affine=True, track_running_stats=True)
        (act2): Changable_Act(
          (act_fun): Learnable_Relu6_Hard_SNL()
        )
        (se): Identity()
        (conv_pwl): Conv2d(192, 32, kernel_size=(1, 1), stride=(1, 1), bias=False)
        (bn3): BatchNorm2d(32, eps=1e-05, momentum=0.1, affine=True, track_running_stats=True)
      )
    )
    (2): Sequential(
      (0): InvertedResidual(
        (conv_pw): Conv2d(32, 192, kernel_size=(1, 1), stride=(1, 1), bias=False)
        (bn1): BatchNorm2d(192, eps=1e-05, momentum=0.1, affine=True, track_running_stats=True)
        (act1): Changable_Act(
          (act_fun): Learnable_Relu6_Hard_SNL()
        )
        (conv_dw): Conv2d(192, 192, kernel_size=(3, 3), stride=(2, 2), padding=(1, 1), groups=192, bias=False)
        (bn2): BatchNorm2d(192, eps=1e-05, momentum=0.1, affine=True, track_running_stats=True)
        (act2): Changable_Act(
          (act_fun): Learnable_Relu6_Hard_SNL()
        )
        (se): Identity()
        (conv_pwl): Conv2d(192, 48, kernel_size=(1, 1), stride=(1, 1), bias=False)
        (bn3): BatchNorm2d(48, eps=1e-05, momentum=0.1, affine=True, track_running_stats=True)
      )
      (1): InvertedResidual(
        (conv_pw): Conv2d(48, 288, kernel_size=(1, 1), stride=(1, 1), bias=False)
        (bn1): BatchNorm2d(288, eps=1e-05, momentum=0.1, affine=True, track_running_stats=True)
        (act1): Changable_Act(
          (act_fun): Learnable_Relu6_Hard_SNL()
        )
        (conv_dw): Conv2d(288, 288, kernel_size=(3, 3), stride=(1, 1), padding=(1, 1), groups=288, bias=False)
        (bn2): BatchNorm2d(288, eps=1e-05, momentum=0.1, affine=True, track_running_stats=True)
        (act2): Changable_Act(
          (act_fun): Learnable_Relu6_Hard_SNL()
        )
        (se): Identity()
        (conv_pwl): Conv2d(288, 48, kernel_size=(1, 1), stride=(1, 1), bias=False)
        (bn3): BatchNorm2d(48, eps=1e-05, momentum=0.1, affine=True, track_running_stats=True)
      )
      (2): InvertedResidual(
        (conv_pw): Conv2d(48, 288, kernel_size=(1, 1), stride=(1, 1), bias=False)
        (bn1): BatchNorm2d(288, eps=1e-05, momentum=0.1, affine=True, track_running_stats=True)
        (act1): Changable_Act(
          (act_fun): Learnable_Relu6_Hard_SNL()
        )
        (conv_dw): Conv2d(288, 288, kernel_size=(3, 3), stride=(1, 1), padding=(1, 1), groups=288, bias=False)
        (bn2): BatchNorm2d(288, eps=1e-05, momentum=0.1, affine=True, track_running_stats=True)
        (act2): Changable_Act(
          (act_fun): Learnable_Relu6_Hard_SNL()
        )
        (se): Identity()
        (conv_pwl): Conv2d(288, 48, kernel_size=(1, 1), stride=(1, 1), bias=False)
        (bn3): BatchNorm2d(48, eps=1e-05, momentum=0.1, affine=True, track_running_stats=True)
      )
    )
    (3): Sequential(
      (0): InvertedResidual(
        (conv_pw): Conv2d(48, 288, kernel_size=(1, 1), stride=(1, 1), bias=False)
        (bn1): BatchNorm2d(288, eps=1e-05, momentum=0.1, affine=True, track_running_stats=True)
        (act1): Changable_Act(
          (act_fun): Learnable_Relu6_Hard_SNL()
        )
        (conv_dw): Conv2d(288, 288, kernel_size=(3, 3), stride=(2, 2), padding=(1, 1), groups=288, bias=False)
        (bn2): BatchNorm2d(288, eps=1e-05, momentum=0.1, affine=True, track_running_stats=True)
        (act2): Changable_Act(
          (act_fun): Learnable_Relu6_Hard_SNL()
        )
        (se): Identity()
        (conv_pwl): Conv2d(288, 88, kernel_size=(1, 1), stride=(1, 1), bias=False)
        (bn3): BatchNorm2d(88, eps=1e-05, momentum=0.1, affine=True, track_running_stats=True)
      )
      (1): InvertedResidual(
        (conv_pw): Conv2d(88, 528, kernel_size=(1, 1), stride=(1, 1), bias=False)
        (bn1): BatchNorm2d(528, eps=1e-05, momentum=0.1, affine=True, track_running_stats=True)
        (act1): Changable_Act(
          (act_fun): Learnable_Relu6_Hard_SNL()
        )
        (conv_dw): Conv2d(528, 528, kernel_size=(3, 3), stride=(1, 1), padding=(1, 1), groups=528, bias=False)
        (bn2): BatchNorm2d(528, eps=1e-05, momentum=0.1, affine=True, track_running_stats=True)
        (act2): Changable_Act(
          (act_fun): Learnable_Relu6_Hard_SNL()
        )
        (se): Identity()
        (conv_pwl): Conv2d(528, 88, kernel_size=(1, 1), stride=(1, 1), bias=False)
        (bn3): BatchNorm2d(88, eps=1e-05, momentum=0.1, affine=True, track_running_stats=True)
      )
      (2): InvertedResidual(
        (conv_pw): Conv2d(88, 528, kernel_size=(1, 1), stride=(1, 1), bias=False)
        (bn1): BatchNorm2d(528, eps=1e-05, momentum=0.1, affine=True, track_running_stats=True)
        (act1): Changable_Act(
          (act_fun): Learnable_Relu6_Hard_SNL()
        )
        (conv_dw): Conv2d(528, 528, kernel_size=(3, 3), stride=(1, 1), padding=(1, 1), groups=528, bias=False)
        (bn2): BatchNorm2d(528, eps=1e-05, momentum=0.1, affine=True, track_running_stats=True)
        (act2): Changable_Act(
          (act_fun): Learnable_Relu6_Hard_SNL()
        )
        (se): Identity()
        (conv_pwl): Conv2d(528, 88, kernel_size=(1, 1), stride=(1, 1), bias=False)
        (bn3): BatchNorm2d(88, eps=1e-05, momentum=0.1, affine=True, track_running_stats=True)
      )
      (3): InvertedResidual(
        (conv_pw): Conv2d(88, 528, kernel_size=(1, 1), stride=(1, 1), bias=False)
        (bn1): BatchNorm2d(528, eps=1e-05, momentum=0.1, affine=True, track_running_stats=True)
        (act1): Changable_Act(
          (act_fun): Learnable_Relu6_Hard_SNL()
        )
        (conv_dw): Conv2d(528, 528, kernel_size=(3, 3), stride=(1, 1), padding=(1, 1), groups=528, bias=False)
        (bn2): BatchNorm2d(528, eps=1e-05, momentum=0.1, affine=True, track_running_stats=True)
        (act2): Changable_Act(
          (act_fun): Learnable_Relu6_Hard_SNL()
        )
        (se): Identity()
        (conv_pwl): Conv2d(528, 88, kernel_size=(1, 1), stride=(1, 1), bias=False)
        (bn3): BatchNorm2d(88, eps=1e-05, momentum=0.1, affine=True, track_running_stats=True)
      )
    )
    (4): Sequential(
      (0): InvertedResidual(
        (conv_pw): Conv2d(88, 528, kernel_size=(1, 1), stride=(1, 1), bias=False)
        (bn1): BatchNorm2d(528, eps=1e-05, momentum=0.1, affine=True, track_running_stats=True)
        (act1): Changable_Act(
          (act_fun): Learnable_Relu6_Hard_SNL()
        )
        (conv_dw): Conv2d(528, 528, kernel_size=(3, 3), stride=(1, 1), padding=(1, 1), groups=528, bias=False)
        (bn2): BatchNorm2d(528, eps=1e-05, momentum=0.1, affine=True, track_running_stats=True)
        (act2): Changable_Act(
          (act_fun): Learnable_Relu6_Hard_SNL()
        )
        (se): Identity()
        (conv_pwl): Conv2d(528, 136, kernel_size=(1, 1), stride=(1, 1), bias=False)
        (bn3): BatchNorm2d(136, eps=1e-05, momentum=0.1, affine=True, track_running_stats=True)
      )
      (1): InvertedResidual(
        (conv_pw): Conv2d(136, 816, kernel_size=(1, 1), stride=(1, 1), bias=False)
        (bn1): BatchNorm2d(816, eps=1e-05, momentum=0.1, affine=True, track_running_stats=True)
        (act1): Changable_Act(
          (act_fun): Learnable_Relu6_Hard_SNL()
        )
        (conv_dw): Conv2d(816, 816, kernel_size=(3, 3), stride=(1, 1), padding=(1, 1), groups=816, bias=False)
        (bn2): BatchNorm2d(816, eps=1e-05, momentum=0.1, affine=True, track_running_stats=True)
        (act2): Changable_Act(
          (act_fun): Learnable_Relu6_Hard_SNL()
        )
        (se): Identity()
        (conv_pwl): Conv2d(816, 136, kernel_size=(1, 1), stride=(1, 1), bias=False)
        (bn3): BatchNorm2d(136, eps=1e-05, momentum=0.1, affine=True, track_running_stats=True)
      )
      (2): InvertedResidual(
        (conv_pw): Conv2d(136, 816, kernel_size=(1, 1), stride=(1, 1), bias=False)
        (bn1): BatchNorm2d(816, eps=1e-05, momentum=0.1, affine=True, track_running_stats=True)
        (act1): Changable_Act(
          (act_fun): Learnable_Relu6_Hard_SNL()
        )
        (conv_dw): Conv2d(816, 816, kernel_size=(3, 3), stride=(1, 1), padding=(1, 1), groups=816, bias=False)
        (bn2): BatchNorm2d(816, eps=1e-05, momentum=0.1, affine=True, track_running_stats=True)
        (act2): Changable_Act(
          (act_fun): Learnable_Relu6_Hard_SNL()
        )
        (se): Identity()
        (conv_pwl): Conv2d(816, 136, kernel_size=(1, 1), stride=(1, 1), bias=False)
        (bn3): BatchNorm2d(136, eps=1e-05, momentum=0.1, affine=True, track_running_stats=True)
      )
    )
    (5): Sequential(
      (0): InvertedResidual(
        (conv_pw): Conv2d(136, 816, kernel_size=(1, 1), stride=(1, 1), bias=False)
        (bn1): BatchNorm2d(816, eps=1e-05, momentum=0.1, affine=True, track_running_stats=True)
        (act1): Changable_Act(
          (act_fun): Learnable_Relu6_Hard_SNL()
        )
        (conv_dw): Conv2d(816, 816, kernel_size=(3, 3), stride=(2, 2), padding=(1, 1), groups=816, bias=False)
        (bn2): BatchNorm2d(816, eps=1e-05, momentum=0.1, affine=True, track_running_stats=True)
        (act2): Changable_Act(
          (act_fun): Learnable_Relu6_Hard_SNL()
        )
        (se): Identity()
        (conv_pwl): Conv2d(816, 224, kernel_size=(1, 1), stride=(1, 1), bias=False)
        (bn3): BatchNorm2d(224, eps=1e-05, momentum=0.1, affine=True, track_running_stats=True)
      )
      (1): InvertedResidual(
        (conv_pw): Conv2d(224, 1344, kernel_size=(1, 1), stride=(1, 1), bias=False)
        (bn1): BatchNorm2d(1344, eps=1e-05, momentum=0.1, affine=True, track_running_stats=True)
        (act1): Changable_Act(
          (act_fun): Learnable_Relu6_Hard_SNL()
        )
        (conv_dw): Conv2d(1344, 1344, kernel_size=(3, 3), stride=(1, 1), padding=(1, 1), groups=1344, bias=False)
        (bn2): BatchNorm2d(1344, eps=1e-05, momentum=0.1, affine=True, track_running_stats=True)
        (act2): Changable_Act(
          (act_fun): Learnable_Relu6_Hard_SNL()
        )
        (se): Identity()
        (conv_pwl): Conv2d(1344, 224, kernel_size=(1, 1), stride=(1, 1), bias=False)
        (bn3): BatchNorm2d(224, eps=1e-05, momentum=0.1, affine=True, track_running_stats=True)
      )
      (2): InvertedResidual(
        (conv_pw): Conv2d(224, 1344, kernel_size=(1, 1), stride=(1, 1), bias=False)
        (bn1): BatchNorm2d(1344, eps=1e-05, momentum=0.1, affine=True, track_running_stats=True)
        (act1): Changable_Act(
          (act_fun): Learnable_Relu6_Hard_SNL()
        )
        (conv_dw): Conv2d(1344, 1344, kernel_size=(3, 3), stride=(1, 1), padding=(1, 1), groups=1344, bias=False)
        (bn2): BatchNorm2d(1344, eps=1e-05, momentum=0.1, affine=True, track_running_stats=True)
        (act2): Changable_Act(
          (act_fun): Learnable_Relu6_Hard_SNL()
        )
        (se): Identity()
        (conv_pwl): Conv2d(1344, 224, kernel_size=(1, 1), stride=(1, 1), bias=False)
        (bn3): BatchNorm2d(224, eps=1e-05, momentum=0.1, affine=True, track_running_stats=True)
      )
    )
    (6): Sequential(
      (0): InvertedResidual(
        (conv_pw): Conv2d(224, 1344, kernel_size=(1, 1), stride=(1, 1), bias=False)
        (bn1): BatchNorm2d(1344, eps=1e-05, momentum=0.1, affine=True, track_running_stats=True)
        (act1): Changable_Act(
          (act_fun): Learnable_Relu6_Hard_SNL()
        )
        (conv_dw): Conv2d(1344, 1344, kernel_size=(3, 3), stride=(1, 1), padding=(1, 1), groups=1344, bias=False)
        (bn2): BatchNorm2d(1344, eps=1e-05, momentum=0.1, affine=True, track_running_stats=True)
        (act2): Changable_Act(
          (act_fun): Learnable_Relu6_Hard_SNL()
        )
        (se): Identity()
        (conv_pwl): Conv2d(1344, 448, kernel_size=(1, 1), stride=(1, 1), bias=False)
        (bn3): BatchNorm2d(448, eps=1e-05, momentum=0.1, affine=True, track_running_stats=True)
      )
    )
  )
  (conv_head): Conv2d(448, 1792, kernel_size=(1, 1), stride=(1, 1), bias=False)
  (bn2): BatchNorm2d(1792, eps=1e-05, momentum=0.1, affine=True, track_running_stats=True)
  (act2): Changable_Act(
    (act_fun): Learnable_Relu6_Hard_SNL()
  )
  (global_pool): SelectAdaptivePool2d (pool_type=avg, flatten=Flatten(start_dim=1, end_dim=-1))
  (classifier): Linear(in_features=1792, out_features=1000, bias=True)
)
Successfully build teacher model
number of params (M): 6.130632
Unsupported operator aten::sub encountered 175 time(s)
Unsupported operator aten::mul encountered 210 time(s)
Unsupported operator aten::add encountered 210 time(s)
Unsupported operator aten::rsub encountered 105 time(s)
Unsupported operator aten::add_ encountered 10 time(s)
number of GFLOPs: 0.60143048
…
Train: [0/180][11/5004]	eta 1:50:59 lr 0.100000	data 0.0006 (0.2214)	batch 1.0120 (1.3338)	loss 13.4829 (19.3157)	grad_norm 18.9777 (35.2899)	mem 53721MB
Train: [0/180][12/5004]	eta 1:48:57 lr 0.100000	data 0.0006 (0.2044)	batch 1.0191 (1.3096)	loss 18.0178 (19.2158)	grad_norm 32.8746 (35.1041)	mem 53721MB
Train: [0/180][13/5004]	eta 1:47:17 lr 0.100000	data 0.0006 (0.1899)	batch 1.0339 (1.2899)	loss 17.1563 (19.0687)	grad_norm 21.6292 (34.1416)	mem 53721MB
Creating model:mobilenetv2_140_block_ds/mobilenetv2_140_block_ds
Successfully load pretrained model: /home/mengli/projects/wenxuanzeng/RePriv/mobilenetv2_140_ra-21a4e913.pth
EfficientNet(
  (conv_stem): Conv2d(3, 48, kernel_size=(3, 3), stride=(2, 2), padding=(1, 1), bias=False)
  (bn1): BatchNorm2d(48, eps=1e-05, momentum=0.1, affine=True, track_running_stats=True)
  (act1): Changable_Act(
    (act_fun): Learnable_Relu6_Hard_SNL()
  )
  (blocks): Sequential(
    (0): Sequential(
      (0): DepthwiseSeparableConv(
        (conv_dw): Conv2d(48, 48, kernel_size=(3, 3), stride=(1, 1), padding=(1, 1), groups=48, bias=False)
        (bn1): BatchNorm2d(48, eps=1e-05, momentum=0.1, affine=True, track_running_stats=True)
        (act1): Changable_Act(
          (act_fun): Learnable_Relu6_Hard_SNL()
        )
        (se): Identity()
        (conv_pw): Conv2d(48, 24, kernel_size=(1, 1), stride=(1, 1), bias=False)
        (bn2): BatchNorm2d(24, eps=1e-05, momentum=0.1, affine=True, track_running_stats=True)
        (act2): Identity()
      )
    )
    (1): Sequential(
      (0): InvertedResidual(
        (conv_pw): Conv2d(24, 144, kernel_size=(1, 1), stride=(1, 1), bias=False)
        (bn1): BatchNorm2d(144, eps=1e-05, momentum=0.1, affine=True, track_running_stats=True)
        (act1): Changable_Act(
          (act_fun): Learnable_Relu6_Hard_SNL()
        )
        (conv_dw): Conv2d(144, 144, kernel_size=(3, 3), stride=(2, 2), padding=(1, 1), groups=144, bias=False)
        (bn2): BatchNorm2d(144, eps=1e-05, momentum=0.1, affine=True, track_running_stats=True)
        (act2): Changable_Act(
          (act_fun): Learnable_Relu6_Hard_SNL()
        )
        (se): Identity()
        (conv_pwl): Conv2d(144, 32, kernel_size=(1, 1), stride=(1, 1), bias=False)
        (bn3): BatchNorm2d(32, eps=1e-05, momentum=0.1, affine=True, track_running_stats=True)
      )
      (1): InvertedResidual(
        (conv_pw): Conv2d(32, 192, kernel_size=(1, 1), stride=(1, 1), bias=False)
        (bn1): BatchNorm2d(192, eps=1e-05, momentum=0.1, affine=True, track_running_stats=True)
        (act1): Changable_Act(
          (act_fun): Learnable_Relu6_Hard_SNL()
        )
        (conv_dw): Conv2d(192, 192, kernel_size=(3, 3), stride=(1, 1), padding=(1, 1), groups=192, bias=False)
        (bn2): BatchNorm2d(192, eps=1e-05, momentum=0.1, affine=True, track_running_stats=True)
        (act2): Changable_Act(
          (act_fun): Learnable_Relu6_Hard_SNL()
        )
        (se): Identity()
        (conv_pwl): Conv2d(192, 32, kernel_size=(1, 1), stride=(1, 1), bias=False)
        (bn3): BatchNorm2d(32, eps=1e-05, momentum=0.1, affine=True, track_running_stats=True)
      )
    )
    (2): Sequential(
      (0): InvertedResidual(
        (conv_pw): Conv2d(32, 192, kernel_size=(1, 1), stride=(1, 1), bias=False)
        (bn1): BatchNorm2d(192, eps=1e-05, momentum=0.1, affine=True, track_running_stats=True)
        (act1): Changable_Act(
          (act_fun): Learnable_Relu6_Hard_SNL()
        )
        (conv_dw): Conv2d(192, 192, kernel_size=(3, 3), stride=(2, 2), padding=(1, 1), groups=192, bias=False)
        (bn2): BatchNorm2d(192, eps=1e-05, momentum=0.1, affine=True, track_running_stats=True)
        (act2): Changable_Act(
          (act_fun): Learnable_Relu6_Hard_SNL()
        )
        (se): Identity()
        (conv_pwl): Conv2d(192, 48, kernel_size=(1, 1), stride=(1, 1), bias=False)
        (bn3): BatchNorm2d(48, eps=1e-05, momentum=0.1, affine=True, track_running_stats=True)
      )
      (1): InvertedResidual(
        (conv_pw): Conv2d(48, 288, kernel_size=(1, 1), stride=(1, 1), bias=False)
        (bn1): BatchNorm2d(288, eps=1e-05, momentum=0.1, affine=True, track_running_stats=True)
        (act1): Changable_Act(
          (act_fun): Learnable_Relu6_Hard_SNL()
        )
        (conv_dw): Conv2d(288, 288, kernel_size=(3, 3), stride=(1, 1), padding=(1, 1), groups=288, bias=False)
        (bn2): BatchNorm2d(288, eps=1e-05, momentum=0.1, affine=True, track_running_stats=True)
        (act2): Changable_Act(
          (act_fun): Learnable_Relu6_Hard_SNL()
        )
        (se): Identity()
        (conv_pwl): Conv2d(288, 48, kernel_size=(1, 1), stride=(1, 1), bias=False)
        (bn3): BatchNorm2d(48, eps=1e-05, momentum=0.1, affine=True, track_running_stats=True)
      )
      (2): InvertedResidual(
        (conv_pw): Conv2d(48, 288, kernel_size=(1, 1), stride=(1, 1), bias=False)
        (bn1): BatchNorm2d(288, eps=1e-05, momentum=0.1, affine=True, track_running_stats=True)
        (act1): Changable_Act(
          (act_fun): Learnable_Relu6_Hard_SNL()
        )
        (conv_dw): Conv2d(288, 288, kernel_size=(3, 3), stride=(1, 1), padding=(1, 1), groups=288, bias=False)
        (bn2): BatchNorm2d(288, eps=1e-05, momentum=0.1, affine=True, track_running_stats=True)
        (act2): Changable_Act(
          (act_fun): Learnable_Relu6_Hard_SNL()
        )
        (se): Identity()
        (conv_pwl): Conv2d(288, 48, kernel_size=(1, 1), stride=(1, 1), bias=False)
        (bn3): BatchNorm2d(48, eps=1e-05, momentum=0.1, affine=True, track_running_stats=True)
      )
    )
    (3): Sequential(
      (0): InvertedResidual(
        (conv_pw): Conv2d(48, 288, kernel_size=(1, 1), stride=(1, 1), bias=False)
        (bn1): BatchNorm2d(288, eps=1e-05, momentum=0.1, affine=True, track_running_stats=True)
        (act1): Changable_Act(
          (act_fun): Learnable_Relu6_Hard_SNL()
        )
        (conv_dw): Conv2d(288, 288, kernel_size=(3, 3), stride=(2, 2), padding=(1, 1), groups=288, bias=False)
        (bn2): BatchNorm2d(288, eps=1e-05, momentum=0.1, affine=True, track_running_stats=True)
        (act2): Changable_Act(
          (act_fun): Learnable_Relu6_Hard_SNL()
        )
        (se): Identity()
        (conv_pwl): Conv2d(288, 88, kernel_size=(1, 1), stride=(1, 1), bias=False)
        (bn3): BatchNorm2d(88, eps=1e-05, momentum=0.1, affine=True, track_running_stats=True)
      )
      (1): InvertedResidual(
        (conv_pw): Conv2d(88, 528, kernel_size=(1, 1), stride=(1, 1), bias=False)
        (bn1): BatchNorm2d(528, eps=1e-05, momentum=0.1, affine=True, track_running_stats=True)
        (act1): Changable_Act(
          (act_fun): Learnable_Relu6_Hard_SNL()
        )
        (conv_dw): Conv2d(528, 528, kernel_size=(3, 3), stride=(1, 1), padding=(1, 1), groups=528, bias=False)
        (bn2): BatchNorm2d(528, eps=1e-05, momentum=0.1, affine=True, track_running_stats=True)
        (act2): Changable_Act(
          (act_fun): Learnable_Relu6_Hard_SNL()
        )
        (se): Identity()
        (conv_pwl): Conv2d(528, 88, kernel_size=(1, 1), stride=(1, 1), bias=False)
        (bn3): BatchNorm2d(88, eps=1e-05, momentum=0.1, affine=True, track_running_stats=True)
      )
      (2): InvertedResidual(
        (conv_pw): Conv2d(88, 528, kernel_size=(1, 1), stride=(1, 1), bias=False)
        (bn1): BatchNorm2d(528, eps=1e-05, momentum=0.1, affine=True, track_running_stats=True)
        (act1): Changable_Act(
          (act_fun): Learnable_Relu6_Hard_SNL()
        )
        (conv_dw): Conv2d(528, 528, kernel_size=(3, 3), stride=(1, 1), padding=(1, 1), groups=528, bias=False)
        (bn2): BatchNorm2d(528, eps=1e-05, momentum=0.1, affine=True, track_running_stats=True)
        (act2): Changable_Act(
          (act_fun): Learnable_Relu6_Hard_SNL()
        )
        (se): Identity()
        (conv_pwl): Conv2d(528, 88, kernel_size=(1, 1), stride=(1, 1), bias=False)
        (bn3): BatchNorm2d(88, eps=1e-05, momentum=0.1, affine=True, track_running_stats=True)
      )
      (3): InvertedResidual(
        (conv_pw): Conv2d(88, 528, kernel_size=(1, 1), stride=(1, 1), bias=False)
        (bn1): BatchNorm2d(528, eps=1e-05, momentum=0.1, affine=True, track_running_stats=True)
        (act1): Changable_Act(
          (act_fun): Learnable_Relu6_Hard_SNL()
        )
        (conv_dw): Conv2d(528, 528, kernel_size=(3, 3), stride=(1, 1), padding=(1, 1), groups=528, bias=False)
        (bn2): BatchNorm2d(528, eps=1e-05, momentum=0.1, affine=True, track_running_stats=True)
        (act2): Changable_Act(
          (act_fun): Learnable_Relu6_Hard_SNL()
        )
        (se): Identity()
        (conv_pwl): Conv2d(528, 88, kernel_size=(1, 1), stride=(1, 1), bias=False)
        (bn3): BatchNorm2d(88, eps=1e-05, momentum=0.1, affine=True, track_running_stats=True)
      )
    )
    (4): Sequential(
      (0): InvertedResidual(
        (conv_pw): Conv2d(88, 528, kernel_size=(1, 1), stride=(1, 1), bias=False)
        (bn1): BatchNorm2d(528, eps=1e-05, momentum=0.1, affine=True, track_running_stats=True)
        (act1): Changable_Act(
          (act_fun): Learnable_Relu6_Hard_SNL()
        )
        (conv_dw): Conv2d(528, 528, kernel_size=(3, 3), stride=(1, 1), padding=(1, 1), groups=528, bias=False)
        (bn2): BatchNorm2d(528, eps=1e-05, momentum=0.1, affine=True, track_running_stats=True)
        (act2): Changable_Act(
          (act_fun): Learnable_Relu6_Hard_SNL()
        )
        (se): Identity()
        (conv_pwl): Conv2d(528, 136, kernel_size=(1, 1), stride=(1, 1), bias=False)
        (bn3): BatchNorm2d(136, eps=1e-05, momentum=0.1, affine=True, track_running_stats=True)
      )
      (1): InvertedResidual(
        (conv_pw): Conv2d(136, 816, kernel_size=(1, 1), stride=(1, 1), bias=False)
        (bn1): BatchNorm2d(816, eps=1e-05, momentum=0.1, affine=True, track_running_stats=True)
        (act1): Changable_Act(
          (act_fun): Learnable_Relu6_Hard_SNL()
        )
        (conv_dw): Conv2d(816, 816, kernel_size=(3, 3), stride=(1, 1), padding=(1, 1), groups=816, bias=False)
        (bn2): BatchNorm2d(816, eps=1e-05, momentum=0.1, affine=True, track_running_stats=True)
        (act2): Changable_Act(
          (act_fun): Learnable_Relu6_Hard_SNL()
        )
        (se): Identity()
        (conv_pwl): Conv2d(816, 136, kernel_size=(1, 1), stride=(1, 1), bias=False)
        (bn3): BatchNorm2d(136, eps=1e-05, momentum=0.1, affine=True, track_running_stats=True)
      )
      (2): InvertedResidual(
        (conv_pw): Conv2d(136, 816, kernel_size=(1, 1), stride=(1, 1), bias=False)
        (bn1): BatchNorm2d(816, eps=1e-05, momentum=0.1, affine=True, track_running_stats=True)
        (act1): Changable_Act(
          (act_fun): Learnable_Relu6_Hard_SNL()
        )
        (conv_dw): Conv2d(816, 816, kernel_size=(3, 3), stride=(1, 1), padding=(1, 1), groups=816, bias=False)
        (bn2): BatchNorm2d(816, eps=1e-05, momentum=0.1, affine=True, track_running_stats=True)
        (act2): Changable_Act(
          (act_fun): Learnable_Relu6_Hard_SNL()
        )
        (se): Identity()
        (conv_pwl): Conv2d(816, 136, kernel_size=(1, 1), stride=(1, 1), bias=False)
        (bn3): BatchNorm2d(136, eps=1e-05, momentum=0.1, affine=True, track_running_stats=True)
      )
    )
    (5): Sequential(
      (0): InvertedResidual(
        (conv_pw): Conv2d(136, 816, kernel_size=(1, 1), stride=(1, 1), bias=False)
        (bn1): BatchNorm2d(816, eps=1e-05, momentum=0.1, affine=True, track_running_stats=True)
        (act1): Changable_Act(
          (act_fun): Learnable_Relu6_Hard_SNL()
        )
        (conv_dw): Conv2d(816, 816, kernel_size=(3, 3), stride=(2, 2), padding=(1, 1), groups=816, bias=False)
        (bn2): BatchNorm2d(816, eps=1e-05, momentum=0.1, affine=True, track_running_stats=True)
        (act2): Changable_Act(
          (act_fun): Learnable_Relu6_Hard_SNL()
        )
        (se): Identity()
        (conv_pwl): Conv2d(816, 224, kernel_size=(1, 1), stride=(1, 1), bias=False)
        (bn3): BatchNorm2d(224, eps=1e-05, momentum=0.1, affine=True, track_running_stats=True)
      )
      (1): InvertedResidual(
        (conv_pw): Conv2d(224, 1344, kernel_size=(1, 1), stride=(1, 1), bias=False)
        (bn1): BatchNorm2d(1344, eps=1e-05, momentum=0.1, affine=True, track_running_stats=True)
        (act1): Changable_Act(
          (act_fun): Learnable_Relu6_Hard_SNL()
        )
        (conv_dw): Conv2d(1344, 1344, kernel_size=(3, 3), stride=(1, 1), padding=(1, 1), groups=1344, bias=False)
        (bn2): BatchNorm2d(1344, eps=1e-05, momentum=0.1, affine=True, track_running_stats=True)
        (act2): Changable_Act(
          (act_fun): Learnable_Relu6_Hard_SNL()
        )
        (se): Identity()
        (conv_pwl): Conv2d(1344, 224, kernel_size=(1, 1), stride=(1, 1), bias=False)
        (bn3): BatchNorm2d(224, eps=1e-05, momentum=0.1, affine=True, track_running_stats=True)
      )
      (2): InvertedResidual(
        (conv_pw): Conv2d(224, 1344, kernel_size=(1, 1), stride=(1, 1), bias=False)
        (bn1): BatchNorm2d(1344, eps=1e-05, momentum=0.1, affine=True, track_running_stats=True)
        (act1): Changable_Act(
          (act_fun): Learnable_Relu6_Hard_SNL()
        )
        (conv_dw): Conv2d(1344, 1344, kernel_size=(3, 3), stride=(1, 1), padding=(1, 1), groups=1344, bias=False)
        (bn2): BatchNorm2d(1344, eps=1e-05, momentum=0.1, affine=True, track_running_stats=True)
        (act2): Changable_Act(
          (act_fun): Learnable_Relu6_Hard_SNL()
        )
        (se): Identity()
        (conv_pwl): Conv2d(1344, 224, kernel_size=(1, 1), stride=(1, 1), bias=False)
        (bn3): BatchNorm2d(224, eps=1e-05, momentum=0.1, affine=True, track_running_stats=True)
      )
    )
    (6): Sequential(
      (0): InvertedResidual(
        (conv_pw): Conv2d(224, 1344, kernel_size=(1, 1), stride=(1, 1), bias=False)
        (bn1): BatchNorm2d(1344, eps=1e-05, momentum=0.1, affine=True, track_running_stats=True)
        (act1): Changable_Act(
          (act_fun): Learnable_Relu6_Hard_SNL()
        )
        (conv_dw): Conv2d(1344, 1344, kernel_size=(3, 3), stride=(1, 1), padding=(1, 1), groups=1344, bias=False)
        (bn2): BatchNorm2d(1344, eps=1e-05, momentum=0.1, affine=True, track_running_stats=True)
        (act2): Changable_Act(
          (act_fun): Learnable_Relu6_Hard_SNL()
        )
        (se): Identity()
        (conv_pwl): Conv2d(1344, 448, kernel_size=(1, 1), stride=(1, 1), bias=False)
        (bn3): BatchNorm2d(448, eps=1e-05, momentum=0.1, affine=True, track_running_stats=True)
      )
    )
  )
  (conv_head): Conv2d(448, 1792, kernel_size=(1, 1), stride=(1, 1), bias=False)
  (bn2): BatchNorm2d(1792, eps=1e-05, momentum=0.1, affine=True, track_running_stats=True)
  (act2): Changable_Act(
    (act_fun): Learnable_Relu6_Hard_SNL()
  )
  (global_pool): SelectAdaptivePool2d (pool_type=avg, flatten=Flatten(start_dim=1, end_dim=-1))
  (classifier): Linear(in_features=1792, out_features=1000, bias=True)
)
Successfully build teacher model
number of params (M): 6.130632
Unsupported operator aten::sub encountered 175 time(s)
Unsupported operator aten::mul encountered 210 time(s)
Unsupported operator aten::add encountered 210 time(s)
Unsupported operator aten::rsub encountered 105 time(s)
Unsupported operator aten::add_ encountered 10 time(s)
number of GFLOPs: 0.60143048
Start training
Creating model:mobilenetv2_140_block_ds/mobilenetv2_140_block_ds
Successfully load pretrained model: /home/mengli/projects/wenxuanzeng/RePriv/mobilenetv2_140_ra-21a4e913.pth
EfficientNet(
  (conv_stem): Conv2d(3, 48, kernel_size=(3, 3), stride=(2, 2), padding=(1, 1), bias=False)
  (bn1): BatchNorm2d(48, eps=1e-05, momentum=0.1, affine=True, track_running_stats=True)
  (act1): Changable_Act(
    (act_fun): Learnable_Relu6_Hard_SNL()
  )
  (blocks): Sequential(
    (0): Sequential(
      (0): DepthwiseSeparableConv(
        (conv_dw): Conv2d(48, 48, kernel_size=(3, 3), stride=(1, 1), padding=(1, 1), groups=48, bias=False)
        (bn1): BatchNorm2d(48, eps=1e-05, momentum=0.1, affine=True, track_running_stats=True)
        (act1): Changable_Act(
          (act_fun): Learnable_Relu6_Hard_SNL()
        )
        (se): Identity()
        (conv_pw): Conv2d(48, 24, kernel_size=(1, 1), stride=(1, 1), bias=False)
        (bn2): BatchNorm2d(24, eps=1e-05, momentum=0.1, affine=True, track_running_stats=True)
        (act2): Identity()
      )
    )
    (1): Sequential(
      (0): InvertedResidual(
        (conv_pw): Conv2d(24, 144, kernel_size=(1, 1), stride=(1, 1), bias=False)
        (bn1): BatchNorm2d(144, eps=1e-05, momentum=0.1, affine=True, track_running_stats=True)
        (act1): Changable_Act(
          (act_fun): Learnable_Relu6_Hard_SNL()
        )
        (conv_dw): Conv2d(144, 144, kernel_size=(3, 3), stride=(2, 2), padding=(1, 1), groups=144, bias=False)
        (bn2): BatchNorm2d(144, eps=1e-05, momentum=0.1, affine=True, track_running_stats=True)
        (act2): Changable_Act(
          (act_fun): Learnable_Relu6_Hard_SNL()
        )
        (se): Identity()
        (conv_pwl): Conv2d(144, 32, kernel_size=(1, 1), stride=(1, 1), bias=False)
        (bn3): BatchNorm2d(32, eps=1e-05, momentum=0.1, affine=True, track_running_stats=True)
      )
      (1): InvertedResidual(
        (conv_pw): Conv2d(32, 192, kernel_size=(1, 1), stride=(1, 1), bias=False)
        (bn1): BatchNorm2d(192, eps=1e-05, momentum=0.1, affine=True, track_running_stats=True)
        (act1): Changable_Act(
          (act_fun): Learnable_Relu6_Hard_SNL()
        )
        (conv_dw): Conv2d(192, 192, kernel_size=(3, 3), stride=(1, 1), padding=(1, 1), groups=192, bias=False)
        (bn2): BatchNorm2d(192, eps=1e-05, momentum=0.1, affine=True, track_running_stats=True)
        (act2): Changable_Act(
          (act_fun): Learnable_Relu6_Hard_SNL()
        )
        (se): Identity()
        (conv_pwl): Conv2d(192, 32, kernel_size=(1, 1), stride=(1, 1), bias=False)
        (bn3): BatchNorm2d(32, eps=1e-05, momentum=0.1, affine=True, track_running_stats=True)
      )
    )
    (2): Sequential(
      (0): InvertedResidual(
        (conv_pw): Conv2d(32, 192, kernel_size=(1, 1), stride=(1, 1), bias=False)
        (bn1): BatchNorm2d(192, eps=1e-05, momentum=0.1, affine=True, track_running_stats=True)
        (act1): Changable_Act(
          (act_fun): Learnable_Relu6_Hard_SNL()
        )
        (conv_dw): Conv2d(192, 192, kernel_size=(3, 3), stride=(2, 2), padding=(1, 1), groups=192, bias=False)
        (bn2): BatchNorm2d(192, eps=1e-05, momentum=0.1, affine=True, track_running_stats=True)
        (act2): Changable_Act(
          (act_fun): Learnable_Relu6_Hard_SNL()
        )
        (se): Identity()
        (conv_pwl): Conv2d(192, 48, kernel_size=(1, 1), stride=(1, 1), bias=False)
        (bn3): BatchNorm2d(48, eps=1e-05, momentum=0.1, affine=True, track_running_stats=True)
      )
      (1): InvertedResidual(
        (conv_pw): Conv2d(48, 288, kernel_size=(1, 1), stride=(1, 1), bias=False)
        (bn1): BatchNorm2d(288, eps=1e-05, momentum=0.1, affine=True, track_running_stats=True)
        (act1): Changable_Act(
          (act_fun): Learnable_Relu6_Hard_SNL()
        )
        (conv_dw): Conv2d(288, 288, kernel_size=(3, 3), stride=(1, 1), padding=(1, 1), groups=288, bias=False)
        (bn2): BatchNorm2d(288, eps=1e-05, momentum=0.1, affine=True, track_running_stats=True)
        (act2): Changable_Act(
          (act_fun): Learnable_Relu6_Hard_SNL()
        )
        (se): Identity()
        (conv_pwl): Conv2d(288, 48, kernel_size=(1, 1), stride=(1, 1), bias=False)
        (bn3): BatchNorm2d(48, eps=1e-05, momentum=0.1, affine=True, track_running_stats=True)
      )
      (2): InvertedResidual(
        (conv_pw): Conv2d(48, 288, kernel_size=(1, 1), stride=(1, 1), bias=False)
        (bn1): BatchNorm2d(288, eps=1e-05, momentum=0.1, affine=True, track_running_stats=True)
        (act1): Changable_Act(
          (act_fun): Learnable_Relu6_Hard_SNL()
        )
        (conv_dw): Conv2d(288, 288, kernel_size=(3, 3), stride=(1, 1), padding=(1, 1), groups=288, bias=False)
        (bn2): BatchNorm2d(288, eps=1e-05, momentum=0.1, affine=True, track_running_stats=True)
        (act2): Changable_Act(
          (act_fun): Learnable_Relu6_Hard_SNL()
        )
        (se): Identity()
        (conv_pwl): Conv2d(288, 48, kernel_size=(1, 1), stride=(1, 1), bias=False)
        (bn3): BatchNorm2d(48, eps=1e-05, momentum=0.1, affine=True, track_running_stats=True)
      )
    )
    (3): Sequential(
      (0): InvertedResidual(
        (conv_pw): Conv2d(48, 288, kernel_size=(1, 1), stride=(1, 1), bias=False)
        (bn1): BatchNorm2d(288, eps=1e-05, momentum=0.1, affine=True, track_running_stats=True)
        (act1): Changable_Act(
          (act_fun): Learnable_Relu6_Hard_SNL()
        )
        (conv_dw): Conv2d(288, 288, kernel_size=(3, 3), stride=(2, 2), padding=(1, 1), groups=288, bias=False)
        (bn2): BatchNorm2d(288, eps=1e-05, momentum=0.1, affine=True, track_running_stats=True)
        (act2): Changable_Act(
          (act_fun): Learnable_Relu6_Hard_SNL()
        )
        (se): Identity()
        (conv_pwl): Conv2d(288, 88, kernel_size=(1, 1), stride=(1, 1), bias=False)
        (bn3): BatchNorm2d(88, eps=1e-05, momentum=0.1, affine=True, track_running_stats=True)
      )
      (1): InvertedResidual(
        (conv_pw): Conv2d(88, 528, kernel_size=(1, 1), stride=(1, 1), bias=False)
        (bn1): BatchNorm2d(528, eps=1e-05, momentum=0.1, affine=True, track_running_stats=True)
        (act1): Changable_Act(
          (act_fun): Learnable_Relu6_Hard_SNL()
        )
        (conv_dw): Conv2d(528, 528, kernel_size=(3, 3), stride=(1, 1), padding=(1, 1), groups=528, bias=False)
        (bn2): BatchNorm2d(528, eps=1e-05, momentum=0.1, affine=True, track_running_stats=True)
        (act2): Changable_Act(
          (act_fun): Learnable_Relu6_Hard_SNL()
        )
        (se): Identity()
        (conv_pwl): Conv2d(528, 88, kernel_size=(1, 1), stride=(1, 1), bias=False)
        (bn3): BatchNorm2d(88, eps=1e-05, momentum=0.1, affine=True, track_running_stats=True)
      )
      (2): InvertedResidual(
        (conv_pw): Conv2d(88, 528, kernel_size=(1, 1), stride=(1, 1), bias=False)
        (bn1): BatchNorm2d(528, eps=1e-05, momentum=0.1, affine=True, track_running_stats=True)
        (act1): Changable_Act(
          (act_fun): Learnable_Relu6_Hard_SNL()
        )
        (conv_dw): Conv2d(528, 528, kernel_size=(3, 3), stride=(1, 1), padding=(1, 1), groups=528, bias=False)
        (bn2): BatchNorm2d(528, eps=1e-05, momentum=0.1, affine=True, track_running_stats=True)
        (act2): Changable_Act(
          (act_fun): Learnable_Relu6_Hard_SNL()
        )
        (se): Identity()
        (conv_pwl): Conv2d(528, 88, kernel_size=(1, 1), stride=(1, 1), bias=False)
        (bn3): BatchNorm2d(88, eps=1e-05, momentum=0.1, affine=True, track_running_stats=True)
      )
      (3): InvertedResidual(
        (conv_pw): Conv2d(88, 528, kernel_size=(1, 1), stride=(1, 1), bias=False)
        (bn1): BatchNorm2d(528, eps=1e-05, momentum=0.1, affine=True, track_running_stats=True)
        (act1): Changable_Act(
          (act_fun): Learnable_Relu6_Hard_SNL()
        )
        (conv_dw): Conv2d(528, 528, kernel_size=(3, 3), stride=(1, 1), padding=(1, 1), groups=528, bias=False)
        (bn2): BatchNorm2d(528, eps=1e-05, momentum=0.1, affine=True, track_running_stats=True)
        (act2): Changable_Act(
          (act_fun): Learnable_Relu6_Hard_SNL()
        )
        (se): Identity()
        (conv_pwl): Conv2d(528, 88, kernel_size=(1, 1), stride=(1, 1), bias=False)
        (bn3): BatchNorm2d(88, eps=1e-05, momentum=0.1, affine=True, track_running_stats=True)
      )
    )
    (4): Sequential(
      (0): InvertedResidual(
        (conv_pw): Conv2d(88, 528, kernel_size=(1, 1), stride=(1, 1), bias=False)
        (bn1): BatchNorm2d(528, eps=1e-05, momentum=0.1, affine=True, track_running_stats=True)
        (act1): Changable_Act(
          (act_fun): Learnable_Relu6_Hard_SNL()
        )
        (conv_dw): Conv2d(528, 528, kernel_size=(3, 3), stride=(1, 1), padding=(1, 1), groups=528, bias=False)
        (bn2): BatchNorm2d(528, eps=1e-05, momentum=0.1, affine=True, track_running_stats=True)
        (act2): Changable_Act(
          (act_fun): Learnable_Relu6_Hard_SNL()
        )
        (se): Identity()
        (conv_pwl): Conv2d(528, 136, kernel_size=(1, 1), stride=(1, 1), bias=False)
        (bn3): BatchNorm2d(136, eps=1e-05, momentum=0.1, affine=True, track_running_stats=True)
      )
      (1): InvertedResidual(
        (conv_pw): Conv2d(136, 816, kernel_size=(1, 1), stride=(1, 1), bias=False)
        (bn1): BatchNorm2d(816, eps=1e-05, momentum=0.1, affine=True, track_running_stats=True)
        (act1): Changable_Act(
          (act_fun): Learnable_Relu6_Hard_SNL()
        )
        (conv_dw): Conv2d(816, 816, kernel_size=(3, 3), stride=(1, 1), padding=(1, 1), groups=816, bias=False)
        (bn2): BatchNorm2d(816, eps=1e-05, momentum=0.1, affine=True, track_running_stats=True)
        (act2): Changable_Act(
          (act_fun): Learnable_Relu6_Hard_SNL()
        )
        (se): Identity()
        (conv_pwl): Conv2d(816, 136, kernel_size=(1, 1), stride=(1, 1), bias=False)
        (bn3): BatchNorm2d(136, eps=1e-05, momentum=0.1, affine=True, track_running_stats=True)
      )
      (2): InvertedResidual(
        (conv_pw): Conv2d(136, 816, kernel_size=(1, 1), stride=(1, 1), bias=False)
        (bn1): BatchNorm2d(816, eps=1e-05, momentum=0.1, affine=True, track_running_stats=True)
        (act1): Changable_Act(
          (act_fun): Learnable_Relu6_Hard_SNL()
        )
        (conv_dw): Conv2d(816, 816, kernel_size=(3, 3), stride=(1, 1), padding=(1, 1), groups=816, bias=False)
        (bn2): BatchNorm2d(816, eps=1e-05, momentum=0.1, affine=True, track_running_stats=True)
        (act2): Changable_Act(
          (act_fun): Learnable_Relu6_Hard_SNL()
        )
        (se): Identity()
        (conv_pwl): Conv2d(816, 136, kernel_size=(1, 1), stride=(1, 1), bias=False)
        (bn3): BatchNorm2d(136, eps=1e-05, momentum=0.1, affine=True, track_running_stats=True)
      )
    )
    (5): Sequential(
      (0): InvertedResidual(
        (conv_pw): Conv2d(136, 816, kernel_size=(1, 1), stride=(1, 1), bias=False)
        (bn1): BatchNorm2d(816, eps=1e-05, momentum=0.1, affine=True, track_running_stats=True)
        (act1): Changable_Act(
          (act_fun): Learnable_Relu6_Hard_SNL()
        )
        (conv_dw): Conv2d(816, 816, kernel_size=(3, 3), stride=(2, 2), padding=(1, 1), groups=816, bias=False)
        (bn2): BatchNorm2d(816, eps=1e-05, momentum=0.1, affine=True, track_running_stats=True)
        (act2): Changable_Act(
          (act_fun): Learnable_Relu6_Hard_SNL()
        )
        (se): Identity()
        (conv_pwl): Conv2d(816, 224, kernel_size=(1, 1), stride=(1, 1), bias=False)
        (bn3): BatchNorm2d(224, eps=1e-05, momentum=0.1, affine=True, track_running_stats=True)
      )
      (1): InvertedResidual(
        (conv_pw): Conv2d(224, 1344, kernel_size=(1, 1), stride=(1, 1), bias=False)
        (bn1): BatchNorm2d(1344, eps=1e-05, momentum=0.1, affine=True, track_running_stats=True)
        (act1): Changable_Act(
          (act_fun): Learnable_Relu6_Hard_SNL()
        )
        (conv_dw): Conv2d(1344, 1344, kernel_size=(3, 3), stride=(1, 1), padding=(1, 1), groups=1344, bias=False)
        (bn2): BatchNorm2d(1344, eps=1e-05, momentum=0.1, affine=True, track_running_stats=True)
        (act2): Changable_Act(
          (act_fun): Learnable_Relu6_Hard_SNL()
        )
        (se): Identity()
        (conv_pwl): Conv2d(1344, 224, kernel_size=(1, 1), stride=(1, 1), bias=False)
        (bn3): BatchNorm2d(224, eps=1e-05, momentum=0.1, affine=True, track_running_stats=True)
      )
      (2): InvertedResidual(
        (conv_pw): Conv2d(224, 1344, kernel_size=(1, 1), stride=(1, 1), bias=False)
        (bn1): BatchNorm2d(1344, eps=1e-05, momentum=0.1, affine=True, track_running_stats=True)
        (act1): Changable_Act(
          (act_fun): Learnable_Relu6_Hard_SNL()
        )
        (conv_dw): Conv2d(1344, 1344, kernel_size=(3, 3), stride=(1, 1), padding=(1, 1), groups=1344, bias=False)
        (bn2): BatchNorm2d(1344, eps=1e-05, momentum=0.1, affine=True, track_running_stats=True)
        (act2): Changable_Act(
          (act_fun): Learnable_Relu6_Hard_SNL()
        )
        (se): Identity()
        (conv_pwl): Conv2d(1344, 224, kernel_size=(1, 1), stride=(1, 1), bias=False)
        (bn3): BatchNorm2d(224, eps=1e-05, momentum=0.1, affine=True, track_running_stats=True)
      )
    )
    (6): Sequential(
      (0): InvertedResidual(
        (conv_pw): Conv2d(224, 1344, kernel_size=(1, 1), stride=(1, 1), bias=False)
        (bn1): BatchNorm2d(1344, eps=1e-05, momentum=0.1, affine=True, track_running_stats=True)
        (act1): Changable_Act(
          (act_fun): Learnable_Relu6_Hard_SNL()
        )
        (conv_dw): Conv2d(1344, 1344, kernel_size=(3, 3), stride=(1, 1), padding=(1, 1), groups=1344, bias=False)
        (bn2): BatchNorm2d(1344, eps=1e-05, momentum=0.1, affine=True, track_running_stats=True)
        (act2): Changable_Act(
          (act_fun): Learnable_Relu6_Hard_SNL()
        )
        (se): Identity()
        (conv_pwl): Conv2d(1344, 448, kernel_size=(1, 1), stride=(1, 1), bias=False)
        (bn3): BatchNorm2d(448, eps=1e-05, momentum=0.1, affine=True, track_running_stats=True)
      )
    )
  )
  (conv_head): Conv2d(448, 1792, kernel_size=(1, 1), stride=(1, 1), bias=False)
  (bn2): BatchNorm2d(1792, eps=1e-05, momentum=0.1, affine=True, track_running_stats=True)
  (act2): Changable_Act(
    (act_fun): Learnable_Relu6_Hard_SNL()
  )
  (global_pool): SelectAdaptivePool2d (pool_type=avg, flatten=Flatten(start_dim=1, end_dim=-1))
  (classifier): Linear(in_features=1792, out_features=1000, bias=True)
)
Successfully build teacher model
number of params (M): 6.130632
Unsupported operator aten::sub encountered 175 time(s)
Unsupported operator aten::mul encountered 210 time(s)
Unsupported operator aten::add encountered 210 time(s)
Unsupported operator aten::rsub encountered 105 time(s)
Unsupported operator aten::add_ encountered 10 time(s)
number of GFLOPs: 0.60143048
…
