…
  ACCUMULATION_STEPS: 0
  AUTO_RESUME: false
  BASE_BATCH_SIZE: 256
  BASE_LR: 0.05
  CLIP_GRAD: 5.0
  EPOCHS: 180
  LR_SCHEDULER:
    DECAY_EPOCHS: 30
    DECAY_RATE: 0.1
    NAME: cosine
  MAX: 192
  MIN_LR: 2.5e-06
  OPTIMIZER:
    BETAS:
    - 0.9
    - 0.999
    EPS: 1.0e-08
    MOMENTUM: 0.9
    NAME: sgd
  START_EPOCH: 0
  USE_CHECKPOINT: false
  USE_CONV_PROJ: true
  WARMUP_EPOCHS: 0
  WARMUP_LR: 2.5e-07
  WEIGHT_DECAY: 1.0e-05
WORLD_SIZE: 1
dist_url: tcp://127.0.0.1:10002
gpu: 0
machine_rank: 0
num_nodes: 1

Creating model:mobilenetv2_140_block_ds/mobilenetv2_140_block_ds
EfficientNet(
  (conv_stem): Conv2d(3, 48, kernel_size=(3, 3), stride=(2, 2), padding=(1, 1), bias=False)
  (bn1): BatchNorm2d(48, eps=1e-05, momentum=0.1, affine=True, track_running_stats=True)
  (act1): Changable_Act(
    (act_fun): Learnable_Relu6_Hard()
  )
  (blocks): Sequential(
    (0): Sequential(
      (0): DepthwiseSeparableConv(
        (conv_dw): Conv2d(48, 48, kernel_size=(3, 3), stride=(1, 1), padding=(1, 1), groups=48, bias=False)
        (bn1): BatchNorm2d(48, eps=1e-05, momentum=0.1, affine=True, track_running_stats=True)
        (act1): Changable_Act(
          (act_fun): Learnable_Relu6_Hard()
        )
        (se): Identity()
        (conv_pw): Conv2d(48, 24, kernel_size=(1, 1), stride=(1, 1), bias=False)
        (bn2): BatchNorm2d(24, eps=1e-05, momentum=0.1, affine=True, track_running_stats=True)
        (act2): Identity()
      )
    )
    (1): Sequential(
      (0): InvertedResidual_Share_Act(
        (conv_pw): Conv2d(24, 144, kernel_size=(1, 1), stride=(1, 1), bias=False)
        (bn1): BatchNorm2d(144, eps=1e-05, momentum=0.1, affine=True, track_running_stats=True)
        (act): Changable_Act(
          (act_fun): Learnable_Relu6_Hard()
        )
        (conv_dw): Conv2d(144, 144, kernel_size=(3, 3), stride=(2, 2), padding=(1, 1), groups=144, bias=False)
        (bn2): BatchNorm2d(144, eps=1e-05, momentum=0.1, affine=True, track_running_stats=True)
        (se): Identity()
        (conv_pwl): Conv2d(144, 32, kernel_size=(1, 1), stride=(1, 1), bias=False)
        (bn3): BatchNorm2d(32, eps=1e-05, momentum=0.1, affine=True, track_running_stats=True)
        (final_act): Identity()
      )
      (1): InvertedResidual_Share_Act(
        (conv_pw): Conv2d(32, 192, kernel_size=(1, 1), stride=(1, 1), bias=False)
        (bn1): BatchNorm2d(192, eps=1e-05, momentum=0.1, affine=True, track_running_stats=True)
        (act): Changable_Act(
          (act_fun): Learnable_Relu6_Hard()
        )
        (conv_dw): Conv2d(192, 192, kernel_size=(3, 3), stride=(1, 1), padding=(1, 1), groups=192, bias=False)
        (bn2): BatchNorm2d(192, eps=1e-05, momentum=0.1, affine=True, track_running_stats=True)
        (se): Identity()
        (conv_pwl): Conv2d(192, 32, kernel_size=(1, 1), stride=(1, 1), bias=False)
        (bn3): BatchNorm2d(32, eps=1e-05, momentum=0.1, affine=True, track_running_stats=True)
        (final_act): Identity()
      )
    )
    (2): Sequential(
      (0): InvertedResidual_Share_Act(
        (conv_pw): Conv2d(32, 192, kernel_size=(1, 1), stride=(1, 1), bias=False)
        (bn1): BatchNorm2d(192, eps=1e-05, momentum=0.1, affine=True, track_running_stats=True)
        (act): Changable_Act(
          (act_fun): Learnable_Relu6_Hard()
        )
        (conv_dw): Conv2d(192, 192, kernel_size=(3, 3), stride=(2, 2), padding=(1, 1), groups=192, bias=False)
        (bn2): BatchNorm2d(192, eps=1e-05, momentum=0.1, affine=True, track_running_stats=True)
        (se): Identity()
        (conv_pwl): Conv2d(192, 48, kernel_size=(1, 1), stride=(1, 1), bias=False)
        (bn3): BatchNorm2d(48, eps=1e-05, momentum=0.1, affine=True, track_running_stats=True)
        (final_act): Identity()
      )
      (1): InvertedResidual_Share_Act(
        (conv_pw): Conv2d(48, 288, kernel_size=(1, 1), stride=(1, 1), bias=False)
        (bn1): BatchNorm2d(288, eps=1e-05, momentum=0.1, affine=True, track_running_stats=True)
        (act): Changable_Act(
          (act_fun): Learnable_Relu6_Hard()
        )
        (conv_dw): Conv2d(288, 288, kernel_size=(3, 3), stride=(1, 1), padding=(1, 1), groups=288, bias=False)
        (bn2): BatchNorm2d(288, eps=1e-05, momentum=0.1, affine=True, track_running_stats=True)
        (se): Identity()
        (conv_pwl): Conv2d(288, 48, kernel_size=(1, 1), stride=(1, 1), bias=False)
        (bn3): BatchNorm2d(48, eps=1e-05, momentum=0.1, affine=True, track_running_stats=True)
        (final_act): Identity()
      )
      (2): InvertedResidual_Share_Act(
        (conv_pw): Conv2d(48, 288, kernel_size=(1, 1), stride=(1, 1), bias=False)
        (bn1): BatchNorm2d(288, eps=1e-05, momentum=0.1, affine=True, track_running_stats=True)
        (act): Changable_Act(
          (act_fun): Learnable_Relu6_Hard()
        )
        (conv_dw): Conv2d(288, 288, kernel_size=(3, 3), stride=(1, 1), padding=(1, 1), groups=288, bias=False)
        (bn2): BatchNorm2d(288, eps=1e-05, momentum=0.1, affine=True, track_running_stats=True)
        (se): Identity()
        (conv_pwl): Conv2d(288, 48, kernel_size=(1, 1), stride=(1, 1), bias=False)
        (bn3): BatchNorm2d(48, eps=1e-05, momentum=0.1, affine=True, track_running_stats=True)
        (final_act): Identity()
      )
    )
    (3): Sequential(
      (0): InvertedResidual_Share_Act(
        (conv_pw): Conv2d(48, 288, kernel_size=(1, 1), stride=(1, 1), bias=False)
        (bn1): BatchNorm2d(288, eps=1e-05, momentum=0.1, affine=True, track_running_stats=True)
        (act): Changable_Act(
          (act_fun): Learnable_Relu6_Hard()
        )
        (conv_dw): Conv2d(288, 288, kernel_size=(3, 3), stride=(2, 2), padding=(1, 1), groups=288, bias=False)
        (bn2): BatchNorm2d(288, eps=1e-05, momentum=0.1, affine=True, track_running_stats=True)
        (se): Identity()
        (conv_pwl): Conv2d(288, 88, kernel_size=(1, 1), stride=(1, 1), bias=False)
        (bn3): BatchNorm2d(88, eps=1e-05, momentum=0.1, affine=True, track_running_stats=True)
        (final_act): Identity()
      )
      (1): InvertedResidual_Share_Act(
        (conv_pw): Conv2d(88, 528, kernel_size=(1, 1), stride=(1, 1), bias=False)
        (bn1): BatchNorm2d(528, eps=1e-05, momentum=0.1, affine=True, track_running_stats=True)
        (act): Changable_Act(
          (act_fun): Learnable_Relu6_Hard()
        )
        (conv_dw): Conv2d(528, 528, kernel_size=(3, 3), stride=(1, 1), padding=(1, 1), groups=528, bias=False)
        (bn2): BatchNorm2d(528, eps=1e-05, momentum=0.1, affine=True, track_running_stats=True)
        (se): Identity()
        (conv_pwl): Conv2d(528, 88, kernel_size=(1, 1), stride=(1, 1), bias=False)
        (bn3): BatchNorm2d(88, eps=1e-05, momentum=0.1, affine=True, track_running_stats=True)
        (final_act): Identity()
      )
      (2): InvertedResidual_Share_Act(
        (conv_pw): Conv2d(88, 528, kernel_size=(1, 1), stride=(1, 1), bias=False)
        (bn1): BatchNorm2d(528, eps=1e-05, momentum=0.1, affine=True, track_running_stats=True)
        (act): Changable_Act(
          (act_fun): Learnable_Relu6_Hard()
        )
        (conv_dw): Conv2d(528, 528, kernel_size=(3, 3), stride=(1, 1), padding=(1, 1), groups=528, bias=False)
        (bn2): BatchNorm2d(528, eps=1e-05, momentum=0.1, affine=True, track_running_stats=True)
        (se): Identity()
        (conv_pwl): Conv2d(528, 88, kernel_size=(1, 1), stride=(1, 1), bias=False)
        (bn3): BatchNorm2d(88, eps=1e-05, momentum=0.1, affine=True, track_running_stats=True)
        (final_act): Identity()
      )
      (3): InvertedResidual_Share_Act(
        (conv_pw): Conv2d(88, 528, kernel_size=(1, 1), stride=(1, 1), bias=False)
        (bn1): BatchNorm2d(528, eps=1e-05, momentum=0.1, affine=True, track_running_stats=True)
        (act): Changable_Act(
          (act_fun): Learnable_Relu6_Hard()
        )
        (conv_dw): Conv2d(528, 528, kernel_size=(3, 3), stride=(1, 1), padding=(1, 1), groups=528, bias=False)
        (bn2): BatchNorm2d(528, eps=1e-05, momentum=0.1, affine=True, track_running_stats=True)
        (se): Identity()
        (conv_pwl): Conv2d(528, 88, kernel_size=(1, 1), stride=(1, 1), bias=False)
        (bn3): BatchNorm2d(88, eps=1e-05, momentum=0.1, affine=True, track_running_stats=True)
        (final_act): Identity()
      )
    )
    (4): Sequential(
      (0): InvertedResidual_Share_Act(
        (conv_pw): Conv2d(88, 528, kernel_size=(1, 1), stride=(1, 1), bias=False)
        (bn1): BatchNorm2d(528, eps=1e-05, momentum=0.1, affine=True, track_running_stats=True)
        (act): Changable_Act(
          (act_fun): Learnable_Relu6_Hard()
        )
        (conv_dw): Conv2d(528, 528, kernel_size=(3, 3), stride=(1, 1), padding=(1, 1), groups=528, bias=False)
        (bn2): BatchNorm2d(528, eps=1e-05, momentum=0.1, affine=True, track_running_stats=True)
        (se): Identity()
        (conv_pwl): Conv2d(528, 136, kernel_size=(1, 1), stride=(1, 1), bias=False)
        (bn3): BatchNorm2d(136, eps=1e-05, momentum=0.1, affine=True, track_running_stats=True)
        (final_act): Identity()
      )
      (1): InvertedResidual_Share_Act(
        (conv_pw): Conv2d(136, 816, kernel_size=(1, 1), stride=(1, 1), bias=False)
        (bn1): BatchNorm2d(816, eps=1e-05, momentum=0.1, affine=True, track_running_stats=True)
        (act): Changable_Act(
          (act_fun): Learnable_Relu6_Hard()
        )
        (conv_dw): Conv2d(816, 816, kernel_size=(3, 3), stride=(1, 1), padding=(1, 1), groups=816, bias=False)
        (bn2): BatchNorm2d(816, eps=1e-05, momentum=0.1, affine=True, track_running_stats=True)
        (se): Identity()
        (conv_pwl): Conv2d(816, 136, kernel_size=(1, 1), stride=(1, 1), bias=False)
        (bn3): BatchNorm2d(136, eps=1e-05, momentum=0.1, affine=True, track_running_stats=True)
        (final_act): Identity()
      )
      (2): InvertedResidual_Share_Act(
        (conv_pw): Conv2d(136, 816, kernel_size=(1, 1), stride=(1, 1), bias=False)
        (bn1): BatchNorm2d(816, eps=1e-05, momentum=0.1, affine=True, track_running_stats=True)
        (act): Changable_Act(
          (act_fun): Learnable_Relu6_Hard()
        )
        (conv_dw): Conv2d(816, 816, kernel_size=(3, 3), stride=(1, 1), padding=(1, 1), groups=816, bias=False)
        (bn2): BatchNorm2d(816, eps=1e-05, momentum=0.1, affine=True, track_running_stats=True)
        (se): Identity()
        (conv_pwl): Conv2d(816, 136, kernel_size=(1, 1), stride=(1, 1), bias=False)
        (bn3): BatchNorm2d(136, eps=1e-05, momentum=0.1, affine=True, track_running_stats=True)
        (final_act): Identity()
      )
    )
    (5): Sequential(
      (0): InvertedResidual_Share_Act(
        (conv_pw): Conv2d(136, 816, kernel_size=(1, 1), stride=(1, 1), bias=False)
        (bn1): BatchNorm2d(816, eps=1e-05, momentum=0.1, affine=True, track_running_stats=True)
        (act): Changable_Act(
          (act_fun): Learnable_Relu6_Hard()
        )
        (conv_dw): Conv2d(816, 816, kernel_size=(3, 3), stride=(2, 2), padding=(1, 1), groups=816, bias=False)
        (bn2): BatchNorm2d(816, eps=1e-05, momentum=0.1, affine=True, track_running_stats=True)
        (se): Identity()
        (conv_pwl): Conv2d(816, 224, kernel_size=(1, 1), stride=(1, 1), bias=False)
        (bn3): BatchNorm2d(224, eps=1e-05, momentum=0.1, affine=True, track_running_stats=True)
        (final_act): Identity()
      )
      (1): InvertedResidual_Share_Act(
        (conv_pw): Conv2d(224, 1344, kernel_size=(1, 1), stride=(1, 1), bias=False)
        (bn1): BatchNorm2d(1344, eps=1e-05, momentum=0.1, affine=True, track_running_stats=True)
        (act): Changable_Act(
          (act_fun): Learnable_Relu6_Hard()
        )
        (conv_dw): Conv2d(1344, 1344, kernel_size=(3, 3), stride=(1, 1), padding=(1, 1), groups=1344, bias=False)
        (bn2): BatchNorm2d(1344, eps=1e-05, momentum=0.1, affine=True, track_running_stats=True)
        (se): Identity()
        (conv_pwl): Conv2d(1344, 224, kernel_size=(1, 1), stride=(1, 1), bias=False)
        (bn3): BatchNorm2d(224, eps=1e-05, momentum=0.1, affine=True, track_running_stats=True)
        (final_act): Identity()
      )
      (2): InvertedResidual_Share_Act(
        (conv_pw): Conv2d(224, 1344, kernel_size=(1, 1), stride=(1, 1), bias=False)
        (bn1): BatchNorm2d(1344, eps=1e-05, momentum=0.1, affine=True, track_running_stats=True)
        (act): Changable_Act(
          (act_fun): Learnable_Relu6_Hard()
        )
        (conv_dw): Conv2d(1344, 1344, kernel_size=(3, 3), stride=(1, 1), padding=(1, 1), groups=1344, bias=False)
        (bn2): BatchNorm2d(1344, eps=1e-05, momentum=0.1, affine=True, track_running_stats=True)
        (se): Identity()
        (conv_pwl): Conv2d(1344, 224, kernel_size=(1, 1), stride=(1, 1), bias=False)
        (bn3): BatchNorm2d(224, eps=1e-05, momentum=0.1, affine=True, track_running_stats=True)
        (final_act): Identity()
      )
    )
    (6): Sequential(
      (0): InvertedResidual_Share_Act(
        (conv_pw): Conv2d(224, 1344, kernel_size=(1, 1), stride=(1, 1), bias=False)
        (bn1): BatchNorm2d(1344, eps=1e-05, momentum=0.1, affine=True, track_running_stats=True)
        (act): Changable_Act(
          (act_fun): Learnable_Relu6_Hard()
        )
        (conv_dw): Conv2d(1344, 1344, kernel_size=(3, 3), stride=(1, 1), padding=(1, 1), groups=1344, bias=False)
        (bn2): BatchNorm2d(1344, eps=1e-05, momentum=0.1, affine=True, track_running_stats=True)
        (se): Identity()
        (conv_pwl): Conv2d(1344, 448, kernel_size=(1, 1), stride=(1, 1), bias=False)
        (bn3): BatchNorm2d(448, eps=1e-05, momentum=0.1, affine=True, track_running_stats=True)
        (final_act): Identity()
      )
    )
  )
  (conv_head): Conv2d(448, 1792, kernel_size=(1, 1), stride=(1, 1), bias=False)
  (bn2): BatchNorm2d(1792, eps=1e-05, momentum=0.1, affine=True, track_running_stats=True)
  (act2): Changable_Act(
    (act_fun): Learnable_Relu6_Hard()
  )
  (global_pool): SelectAdaptivePool2d (pool_type=avg, flatten=Flatten(start_dim=1, end_dim=-1))
  (classifier): Linear(in_features=1792, out_features=1000, bias=True)
)
number of params (M): 6.108795
Unsupported operator aten::sub encountered 140 time(s)
Unsupported operator aten::mul encountered 105 time(s)
Unsupported operator aten::add encountered 105 time(s)
Unsupported operator aten::rsub encountered 35 time(s)
Unsupported operator aten::add_ encountered 10 time(s)
number of GFLOPs: 0.60143048
Start training
Train: [0/180][0/10009]	eta 2 days, 17:59:10 lr 0.050000	data 19.5488 (19.5488)	batch 23.7337 (23.7337)	loss 6.9348 (6.9348)	grad_norm 1.9815 (1.9815)	mem 24443MB
…
